…
I1212 22:36:35.428684 29091 net.cpp:294] The NetState phase (0) differed from the phase (1) specified by a rule in layer accuracy
I1212 22:36:35.429507 29091 net.cpp:51] Initializing net from parameters: 
name: "FaceNetCCN"
state {
  phase: TRAIN
  level: 0
  stage: ""
}
layer {
  name: "gender"
  type: "ImageData"
  top: "data"
  top: "label"
  include {
    phase: TRAIN
  }
  transform_param {
    scale: 0.00390625
  }
  image_data_param {
    source: "../../train.lst"
    batch_size: 1
    new_height: 150
    new_width: 150
    is_color: true
    root_folder: "../../data/"
  }
}
layer {
  name: "conv1"
  type: "Convolution"
  bottom: "data"
  top: "conv1"
  param {
    lr_mult: 1
    decay_mult: 1
  }
  param {
    lr_mult: 2
    decay_mult: 0
  }
  convolution_param {
    num_output: 3
    pad: 3
    kernel_size: 7
    stride: 2
    weight_filler {
      type: "gaussian"
      std: 0.01
    }
    bias_filler {
      type: "constant"
      value: 0.1
    }
  }
}
layer {
  name: "pool1"
  type: "Pooling"
  bottom: "conv1"
  top: "pool1"
  pooling_param {
    pool: MAX
    kernel_size: 3
    stride: 2
    pad: 1
  }
}
layer {
  name: "norm1"
  type: "LRN"
  bottom: "pool1"
  top: "norm1"
}
layer {
  name: "relu1"
  type: "ReLU"
  bottom: "norm1"
  top: "relu1"
}
layer {
  name: "conv2a"
  type: "Convolution"
  bottom: "relu1"
  top: "conv2a"
  param {
    lr_mult: 1
    decay_mult: 1
  }
  param {
    lr_mult: 2
    decay_mult: 0
  }
  convolution_param {
    num_output: 64
    kernel_size: 1
    stride: 1
    weight_filler {
      type: "gaussian"
      std: 0.01
    }
    bias_filler {
      type: "constant"
      value: 0.1
    }
  }
}
layer {
  name: "conv2"
  type: "Convolution"
  bottom: "conv2a"
  top: "conv2"
  param {
    lr_mult: 1
    decay_mult: 1
  }
  param {
    lr_mult: 2
    decay_mult: 0
  }
  convolution_param {
    num_output: 64
    pad: 1
    kernel_size: 3
    stride: 1
    weight_filler {
      type: "gaussian"
      std: 0.01
    }
    bias_filler {
      type: "constant"
      value: 0.1
    }
  }
}
layer {
  name: "norm2"
  type: "LRN"
  bottom: "conv2"
  top: "norm2"
}
layer {
  name: "pool2"
  type: "Pooling"
  bottom: "norm2"
  top: "pool2"
  pooling_param {
    pool: MAX
    kernel_size: 3
    stride: 2
    pad: 1
  }
}
layer {
  name: "relu2"
  type: "ReLU"
  bottom: "pool2"
  top: "relu2"
}
layer {
  name: "conv3a"
  type: "Convolution"
  bottom: "relu2"
  top: "conv3a"
  param {
    lr_mult: 1
    decay_mult: 1
  }
  param {
    lr_mult: 2
    decay_mult: 0
  }
  convolution_param {
    num_output: 192
    kernel_size: 1
    stride: 1
    weight_filler {
      type: "gaussian"
      std: 0.01
    }
    bias_filler {
      type: "constant"
      value: 0.1
    }
  }
}
layer {
  name: "conv3"
  type: "Convolution"
  bottom: "conv3a"
  top: "conv3"
  param {
    lr_mult: 1
    decay_mult: 1
  }
  param {
    lr_mult: 2
    decay_mult: 0
  }
  convolution_param {
    num_output: 192
    pad: 3
    kernel_size: 3
    stride: 1
    weight_filler {
      type: "gaussian"
      std: 0.01
    }
    bias_filler {
      type: "constant"
      value: 0.1
    }
  }
}
layer {
  name: "pool3"
  type: "Pooling"
  bottom: "conv3"
  top: "pool3"
  pooling_param {
    pool: MAX
    kernel_size: 3
    stride: 2
    pad: 1
  }
}
layer {
  name: "relu3"
  type: "ReLU"
  bottom: "pool3"
  top: "relu3"
}
layer {
  name: "conv4a"
  type: "Convolution"
  bottom: "relu3"
  top: "conv4a"
  param {
    lr_mult: 1
    decay_mult: 1
  }
  param {
    lr_mult: 2
    decay_mult: 0
  }
  convolution_param {
    num_output: 384
    kernel_size: 1
    stride: 1
    weight_filler {
      type: "gaussian"
      std: 0.01
    }
    bias_filler {
      type: "constant"
      value: 0.1
    }
  }
}
layer {
  name: "conv4"
  type: "Convolution"
  bottom: "conv4a"
  top: "conv4"
  param {
    lr_mult: 1
    decay_mult: 1
  }
  param {
    lr_mult: 2
    decay_mult: 0
  }
  convolution_param {
    num_output: 384
    pad: 1
    kernel_size: 3
    stride: 1
    weight_filler {
      type: "gaussian"
      std: 0.01
    }
    bias_filler {
      type: "constant"
      value: 0.1
    }
  }
}
layer {
  name: "conv5a"
  type: "Convolution"
  bottom: "conv4"
  top: "conv5a"
  param {
    lr_mult: 1
    decay_mult: 1
  }
  param {
    lr_mult: 2
    decay_mult: 0
  }
  convolution_param {
    num_output: 256
    kernel_size: 1
    stride: 1
    weight_filler {
      type: "gaussian"
      std: 0.01
    }
    bias_filler {
      type: "constant"
      value: 0.1
    }
  }
}
layer {
  name: "conv5"
  type: "Convolution"
  bottom: "conv5a"
  top: "conv5"
  param {
    lr_mult: 1
    decay_mult: 1
  }
  param {
    lr_mult: 2
    decay_mult: 0
  }
  convolution_param {
    num_output: 256
    pad: 1
    kernel_size: 3
    stride: 1
    weight_filler {
      type: "gaussian"
      std: 0.01
    }
    bias_filler {
      type: "constant"
      value: 0.1
    }
  }
}
layer {
  name: "conv6a"
  type: "Convolution"
  bottom: "conv5"
  top: "conv6a"
  param {
    lr_mult: 1
    decay_mult: 1
  }
  param {
    lr_mult: 2
    decay_mult: 0
  }
  convolution_param {
    num_output: 256
    kernel_size: 1
    stride: 1
    weight_filler {
      type: "gaussian"
      std: 0.01
    }
    bias_filler {
      type: "constant"
      value: 0.1
    }
  }
}
layer {
  name: "conv6"
  type: "Convolution"
  bottom: "conv6a"
  top: "conv6"
  param {
    lr_mult: 1
    decay_mult: 1
  }
  param {
    lr_mult: 2
    decay_mult: 0
  }
  convolution_param {
    num_output: 256
    pad: 1
    kernel_size: 3
    stride: 1
    weight_filler {
      type: "gaussian"
      std: 0.01
    }
    bias_filler {
      type: "constant"
      value: 0.1
    }
  }
}
layer {
  name: "pool4"
  type: "Pooling"
  bottom: "conv6"
  top: "pool4"
  pooling_param {
    pool: MAX
    kernel_size: 3
    stride: 2
  }
}
layer {
  name: "relu4"
  type: "ReLU"
  bottom: "pool4"
  top: "relu4"
}
layer {
  name: "fc1"
  type: "InnerProduct"
  bottom: "relu4"
  top: "fc1"
  param {
    lr_mult: 1
    decay_mult: 1
  }
  param {
    lr_mult: 2
    decay_mult: 0
  }
  inner_product_param {
    num_output: 128
    weight_filler {
      type: "gaussian"
      std: 0.01
    }
    bias_filler {
      type: "constant"
      value: 0
    }
  }
}
layer {
  name: "relu5"
  type: "ReLU"
  bottom: "fc1"
  top: "relu5"
}
layer {
  name: "fc2"
  type: "InnerProduct"
  bottom: "relu5"
  top: "fc2"
  param {
    lr_mult: 1
    decay_mult: 1
  }
  param {
    lr_mult: 2
    decay_mult: 0
  }
  inner_product_param {
    num_output: 2
    weight_filler {
      type: "gaussian"
      std: 0.01
    }
    bias_filler {
      type: "constant"
      value: 0
    }
  }
}
layer {
  name: "loss"
  type: "SoftmaxWithLoss"
  bottom: "fc2"
  bottom: "label"
  top: "loss"
}
I1212 22:36:35.430160 29091 layer_factory.hpp:77] Creating layer gender
I1212 22:36:35.430477 29091 net.cpp:84] Creating Layer gender
I1212 22:36:35.430632 29091 net.cpp:380] gender -> data
I1212 22:36:35.430851 29091 net.cpp:380] gender -> label
I1212 22:36:35.438129 29091 image_data_layer.cpp:38] Opening file ../../train.lst
I1212 22:36:35.694746 29091 image_data_layer.cpp:63] A total of 47000 images.
I1212 22:36:50.827478 29091 image_data_layer.cpp:90] output data size: 1,3,150,150
I1212 22:36:50.948019 29091 net.cpp:122] Setting up gender
I1212 22:36:50.948180 29091 net.cpp:129] Top shape: 1 3 150 150 (67500)
I1212 22:36:50.948261 29091 net.cpp:129] Top shape: 1 (1)
I1212 22:36:50.948335 29091 net.cpp:137] Memory required for data: 270004
I1212 22:36:50.948407 29091 layer_factory.hpp:77] Creating layer conv1
I1212 22:36:50.948621 29091 net.cpp:84] Creating Layer conv1
I1212 22:36:50.948689 29091 net.cpp:406] conv1 <- data
I1212 22:36:50.948762 29091 net.cpp:380] conv1 -> conv1
I1212 22:36:50.971611 29091 net.cpp:122] Setting up conv1
I1212 22:36:50.971695 29091 net.cpp:129] Top shape: 1 3 75 75 (16875)
I1212 22:36:50.971760 29091 net.cpp:137] Memory required for data: 337504
I1212 22:36:50.972266 29091 layer_factory.hpp:77] Creating layer pool1
I1212 22:36:50.974094 29091 net.cpp:84] Creating Layer pool1
I1212 22:36:50.974189 29091 net.cpp:406] pool1 <- conv1
I1212 22:36:50.974258 29091 net.cpp:380] pool1 -> pool1
I1212 22:36:50.974447 29091 net.cpp:122] Setting up pool1
I1212 22:36:50.974524 29091 net.cpp:129] Top shape: 1 3 38 38 (4332)
I1212 22:36:50.974578 29091 net.cpp:137] Memory required for data: 354832
I1212 22:36:50.974628 29091 layer_factory.hpp:77] Creating layer norm1
I1212 22:36:50.974721 29091 net.cpp:84] Creating Layer norm1
I1212 22:36:50.974773 29091 net.cpp:406] norm1 <- pool1
I1212 22:36:50.974824 29091 net.cpp:380] norm1 -> norm1
I1212 22:36:50.993196 29091 net.cpp:122] Setting up norm1
I1212 22:36:50.993288 29091 net.cpp:129] Top shape: 1 3 38 38 (4332)
I1212 22:36:50.996161 29091 net.cpp:137] Memory required for data: 372160
I1212 22:36:50.996232 29091 layer_factory.hpp:77] Creating layer relu1
I1212 22:36:50.996305 29091 net.cpp:84] Creating Layer relu1
I1212 22:36:50.996352 29091 net.cpp:406] relu1 <- norm1
I1212 22:36:50.996414 29091 net.cpp:380] relu1 -> relu1
I1212 22:36:50.996632 29091 net.cpp:122] Setting up relu1
I1212 22:36:50.996714 29091 net.cpp:129] Top shape: 1 3 38 38 (4332)
I1212 22:36:50.996779 29091 net.cpp:137] Memory required for data: 389488
I1212 22:36:50.997118 29091 layer_factory.hpp:77] Creating layer conv2a
I1212 22:36:50.997344 29091 net.cpp:84] Creating Layer conv2a
I1212 22:36:50.998147 29091 net.cpp:406] conv2a <- relu1
I1212 22:36:50.998245 29091 net.cpp:380] conv2a -> conv2a
I1212 22:36:51.011061 29091 net.cpp:122] Setting up conv2a
I1212 22:36:51.011155 29091 net.cpp:129] Top shape: 1 64 38 38 (92416)
I1212 22:36:51.011217 29091 net.cpp:137] Memory required for data: 759152
I1212 22:36:51.011420 29091 layer_factory.hpp:77] Creating layer conv2
I1212 22:36:51.011492 29091 net.cpp:84] Creating Layer conv2
I1212 22:36:51.011557 29091 net.cpp:406] conv2 <- conv2a
I1212 22:36:51.011616 29091 net.cpp:380] conv2 -> conv2
I1212 22:36:51.032946 29091 net.cpp:122] Setting up conv2
I1212 22:36:51.033023 29091 net.cpp:129] Top shape: 1 64 38 38 (92416)
I1212 22:36:51.033067 29091 net.cpp:137] Memory required for data: 1128816
I1212 22:36:51.033141 29091 layer_factory.hpp:77] Creating layer norm2
I1212 22:36:51.033200 29091 net.cpp:84] Creating Layer norm2
I1212 22:36:51.033264 29091 net.cpp:406] norm2 <- conv2
I1212 22:36:51.033324 29091 net.cpp:380] norm2 -> norm2
I1212 22:36:51.033452 29091 net.cpp:122] Setting up norm2
I1212 22:36:51.033529 29091 net.cpp:129] Top shape: 1 64 38 38 (92416)
I1212 22:36:51.033586 29091 net.cpp:137] Memory required for data: 1498480
I1212 22:36:51.033635 29091 layer_factory.hpp:77] Creating layer pool2
I1212 22:36:51.033696 29091 net.cpp:84] Creating Layer pool2
I1212 22:36:51.033756 29091 net.cpp:406] pool2 <- norm2
I1212 22:36:51.033809 29091 net.cpp:380] pool2 -> pool2
I1212 22:36:51.033915 29091 net.cpp:122] Setting up pool2
I1212 22:36:51.033993 29091 net.cpp:129] Top shape: 1 64 20 20 (25600)
I1212 22:36:51.034054 29091 net.cpp:137] Memory required for data: 1600880
I1212 22:36:51.034111 29091 layer_factory.hpp:77] Creating layer relu2
I1212 22:36:51.034178 29091 net.cpp:84] Creating Layer relu2
I1212 22:36:51.034235 29091 net.cpp:406] relu2 <- pool2
I1212 22:36:51.034293 29091 net.cpp:380] relu2 -> relu2
I1212 22:36:51.034382 29091 net.cpp:122] Setting up relu2
I1212 22:36:51.034452 29091 net.cpp:129] Top shape: 1 64 20 20 (25600)
I1212 22:36:51.034498 29091 net.cpp:137] Memory required for data: 1703280
I1212 22:36:51.034579 29091 layer_factory.hpp:77] Creating layer conv3a
I1212 22:36:51.034677 29091 net.cpp:84] Creating Layer conv3a
I1212 22:36:51.034735 29091 net.cpp:406] conv3a <- relu2
I1212 22:36:51.034797 29091 net.cpp:380] conv3a -> conv3a
I1212 22:36:51.035553 29091 net.cpp:122] Setting up conv3a
I1212 22:36:51.035634 29091 net.cpp:129] Top shape: 1 192 20 20 (76800)
I1212 22:36:51.035688 29091 net.cpp:137] Memory required for data: 2010480
I1212 22:36:51.035753 29091 layer_factory.hpp:77] Creating layer conv3
I1212 22:36:51.035830 29091 net.cpp:84] Creating Layer conv3
I1212 22:36:51.035887 29091 net.cpp:406] conv3 <- conv3a
I1212 22:36:51.048967 29091 net.cpp:380] conv3 -> conv3
I1212 22:36:51.082629 29091 net.cpp:122] Setting up conv3
I1212 22:36:51.082720 29091 net.cpp:129] Top shape: 1 192 24 24 (110592)
I1212 22:36:51.082784 29091 net.cpp:137] Memory required for data: 2452848
I1212 22:36:51.082865 29091 layer_factory.hpp:77] Creating layer pool3
I1212 22:36:51.082937 29091 net.cpp:84] Creating Layer pool3
I1212 22:36:51.082991 29091 net.cpp:406] pool3 <- conv3
I1212 22:36:51.083057 29091 net.cpp:380] pool3 -> pool3
I1212 22:36:51.083176 29091 net.cpp:122] Setting up pool3
I1212 22:36:51.083247 29091 net.cpp:129] Top shape: 1 192 13 13 (32448)
I1212 22:36:51.083307 29091 net.cpp:137] Memory required for data: 2582640
I1212 22:36:51.083359 29091 layer_factory.hpp:77] Creating layer relu3
I1212 22:36:51.083421 29091 net.cpp:84] Creating Layer relu3
I1212 22:36:51.083474 29091 net.cpp:406] relu3 <- pool3
I1212 22:36:51.083534 29091 net.cpp:380] relu3 -> relu3
I1212 22:36:51.083642 29091 net.cpp:122] Setting up relu3
I1212 22:36:51.083719 29091 net.cpp:129] Top shape: 1 192 13 13 (32448)
I1212 22:36:51.083776 29091 net.cpp:137] Memory required for data: 2712432
I1212 22:36:51.083822 29091 layer_factory.hpp:77] Creating layer conv4a
I1212 22:36:51.083874 29091 net.cpp:84] Creating Layer conv4a
I1212 22:36:51.083928 29091 net.cpp:406] conv4a <- relu3
I1212 22:36:51.084008 29091 net.cpp:380] conv4a -> conv4a
I1212 22:36:51.085873 29091 net.cpp:122] Setting up conv4a
I1212 22:36:51.105978 29091 net.cpp:129] Top shape: 1 384 13 13 (64896)
I1212 22:36:51.106041 29091 net.cpp:137] Memory required for data: 2972016
I1212 22:36:51.106112 29091 layer_factory.hpp:77] Creating layer conv4
I1212 22:36:51.106205 29091 net.cpp:84] Creating Layer conv4
I1212 22:36:51.106269 29091 net.cpp:406] conv4 <- conv4a
I1212 22:36:51.106334 29091 net.cpp:380] conv4 -> conv4
I1212 22:36:51.265367 29091 net.cpp:122] Setting up conv4
I1212 22:36:51.265485 29091 net.cpp:129] Top shape: 1 384 13 13 (64896)
I1212 22:36:51.265552 29091 net.cpp:137] Memory required for data: 3231600
I1212 22:36:51.265625 29091 layer_factory.hpp:77] Creating layer conv5a
I1212 22:36:51.265712 29091 net.cpp:84] Creating Layer conv5a
I1212 22:36:51.265767 29091 net.cpp:406] conv5a <- conv4
I1212 22:36:51.265830 29091 net.cpp:380] conv5a -> conv5a
I1212 22:36:51.285157 29091 net.cpp:122] Setting up conv5a
I1212 22:36:51.285217 29091 net.cpp:129] Top shape: 1 256 13 13 (43264)
I1212 22:36:51.285262 29091 net.cpp:137] Memory required for data: 3404656
I1212 22:36:51.285313 29091 layer_factory.hpp:77] Creating layer conv5
I1212 22:36:51.285368 29091 net.cpp:84] Creating Layer conv5
I1212 22:36:51.285414 29091 net.cpp:406] conv5 <- conv5a
I1212 22:36:51.285466 29091 net.cpp:380] conv5 -> conv5
I1212 22:36:51.343713 29091 net.cpp:122] Setting up conv5
I1212 22:36:51.343806 29091 net.cpp:129] Top shape: 1 256 13 13 (43264)
I1212 22:36:51.343859 29091 net.cpp:137] Memory required for data: 3577712
I1212 22:36:51.343960 29091 layer_factory.hpp:77] Creating layer conv6a
I1212 22:36:51.344048 29091 net.cpp:84] Creating Layer conv6a
I1212 22:36:51.344102 29091 net.cpp:406] conv6a <- conv5
I1212 22:36:51.344168 29091 net.cpp:380] conv6a -> conv6a
I1212 22:36:51.345901 29091 net.cpp:122] Setting up conv6a
I1212 22:36:51.356997 29091 net.cpp:129] Top shape: 1 256 13 13 (43264)
I1212 22:36:51.357067 29091 net.cpp:137] Memory required for data: 3750768
I1212 22:36:51.357170 29091 layer_factory.hpp:77] Creating layer conv6
I1212 22:36:51.357272 29091 net.cpp:84] Creating Layer conv6
I1212 22:36:51.357321 29091 net.cpp:406] conv6 <- conv6a
I1212 22:36:51.357389 29091 net.cpp:380] conv6 -> conv6
I1212 22:36:51.416594 29091 net.cpp:122] Setting up conv6
I1212 22:36:51.416682 29091 net.cpp:129] Top shape: 1 256 13 13 (43264)
I1212 22:36:51.416743 29091 net.cpp:137] Memory required for data: 3923824
I1212 22:36:51.416810 29091 layer_factory.hpp:77] Creating layer pool4
I1212 22:36:51.416873 29091 net.cpp:84] Creating Layer pool4
I1212 22:36:51.437945 29091 net.cpp:406] pool4 <- conv6
I1212 22:36:51.438036 29091 net.cpp:380] pool4 -> pool4
I1212 22:36:51.438174 29091 net.cpp:122] Setting up pool4
I1212 22:36:51.438241 29091 net.cpp:129] Top shape: 1 256 6 6 (9216)
I1212 22:36:51.438297 29091 net.cpp:137] Memory required for data: 3960688
I1212 22:36:51.438364 29091 layer_factory.hpp:77] Creating layer relu4
I1212 22:36:51.438419 29091 net.cpp:84] Creating Layer relu4
I1212 22:36:51.438470 29091 net.cpp:406] relu4 <- pool4
I1212 22:36:51.438539 29091 net.cpp:380] relu4 -> relu4
I1212 22:36:51.438644 29091 net.cpp:122] Setting up relu4
I1212 22:36:51.438716 29091 net.cpp:129] Top shape: 1 256 6 6 (9216)
I1212 22:36:51.438769 29091 net.cpp:137] Memory required for data: 3997552
I1212 22:36:51.438827 29091 layer_factory.hpp:77] Creating layer fc1
I1212 22:36:51.438947 29091 net.cpp:84] Creating Layer fc1
I1212 22:36:51.439007 29091 net.cpp:406] fc1 <- relu4
I1212 22:36:51.439069 29091 net.cpp:380] fc1 -> fc1
I1212 22:36:51.546476 29091 net.cpp:122] Setting up fc1
I1212 22:36:51.546566 29091 net.cpp:129] Top shape: 1 128 (128)
I1212 22:36:51.546622 29091 net.cpp:137] Memory required for data: 3998064
I1212 22:36:51.546689 29091 layer_factory.hpp:77] Creating layer relu5
I1212 22:36:51.546752 29091 net.cpp:84] Creating Layer relu5
I1212 22:36:51.546805 29091 net.cpp:406] relu5 <- fc1
I1212 22:36:51.546862 29091 net.cpp:380] relu5 -> relu5
I1212 22:36:51.546967 29091 net.cpp:122] Setting up relu5
I1212 22:36:51.547031 29091 net.cpp:129] Top shape: 1 128 (128)
I1212 22:36:51.547082 29091 net.cpp:137] Memory required for data: 3998576
I1212 22:36:51.547129 29091 layer_factory.hpp:77] Creating layer fc2
I1212 22:36:51.547195 29091 net.cpp:84] Creating Layer fc2
I1212 22:36:51.547250 29091 net.cpp:406] fc2 <- relu5
I1212 22:36:51.547312 29091 net.cpp:380] fc2 -> fc2
I1212 22:36:51.547551 29091 net.cpp:122] Setting up fc2
I1212 22:36:51.547621 29091 net.cpp:129] Top shape: 1 2 (2)
I1212 22:36:51.547674 29091 net.cpp:137] Memory required for data: 3998584
I1212 22:36:51.547746 29091 layer_factory.hpp:77] Creating layer loss
I1212 22:36:51.547857 29091 net.cpp:84] Creating Layer loss
I1212 22:36:51.547914 29091 net.cpp:406] loss <- fc2
I1212 22:36:51.568002 29091 net.cpp:406] loss <- label
I1212 22:36:51.568071 29091 net.cpp:380] loss -> loss
I1212 22:36:51.568305 29091 layer_factory.hpp:77] Creating layer loss
…
I1212 22:36:51.597218 29091 net.cpp:294] The NetState phase (1) differed from the phase (0) specified by a rule in layer gender
I1212 22:36:51.598055 29091 net.cpp:51] Initializing net from parameters: 
name: "FaceNetCCN"
state {
  phase: TEST
}
layer {
  name: "gender"
  type: "ImageData"
  top: "data"
  top: "label"
  include {
    phase: TEST
  }
  transform_param {
    scale: 0.00390625
  }
  image_data_param {
    source: "../../test.lst"
    batch_size: 1
    new_height: 150
    new_width: 150
    is_color: true
    root_folder: "../../data/"
  }
}
layer {
  name: "conv1"
  type: "Convolution"
  bottom: "data"
  top: "conv1"
  param {
    lr_mult: 1
    decay_mult: 1
  }
  param {
    lr_mult: 2
    decay_mult: 0
  }
  convolution_param {
    num_output: 3
    pad: 3
    kernel_size: 7
    stride: 2
    weight_filler {
      type: "gaussian"
      std: 0.01
    }
    bias_filler {
      type: "constant"
      value: 0.1
    }
  }
}
layer {
  name: "pool1"
  type: "Pooling"
  bottom: "conv1"
  top: "pool1"
  pooling_param {
    pool: MAX
    kernel_size: 3
    stride: 2
    pad: 1
  }
}
layer {
  name: "norm1"
  type: "LRN"
  bottom: "pool1"
  top: "norm1"
}
layer {
  name: "relu1"
  type: "ReLU"
  bottom: "norm1"
  top: "relu1"
}
layer {
  name: "conv2a"
  type: "Convolution"
  bottom: "relu1"
  top: "conv2a"
  param {
    lr_mult: 1
    decay_mult: 1
  }
  param {
    lr_mult: 2
    decay_mult: 0
  }
  convolution_param {
    num_output: 64
    kernel_size: 1
    stride: 1
    weight_filler {
      type: "gaussian"
      std: 0.01
    }
    bias_filler {
      type: "constant"
      value: 0.1
    }
  }
}
layer {
  name: "conv2"
  type: "Convolution"
  bottom: "conv2a"
  top: "conv2"
  param {
    lr_mult: 1
    decay_mult: 1
  }
  param {
    lr_mult: 2
    decay_mult: 0
  }
  convolution_param {
    num_output: 64
    pad: 1
    kernel_size: 3
    stride: 1
    weight_filler {
      type: "gaussian"
      std: 0.01
    }
    bias_filler {
      type: "constant"
      value: 0.1
    }
  }
}
layer {
  name: "norm2"
  type: "LRN"
  bottom: "conv2"
  top: "norm2"
}
layer {
  name: "pool2"
  type: "Pooling"
  bottom: "norm2"
  top: "pool2"
  pooling_param {
    pool: MAX
    kernel_size: 3
    stride: 2
    pad: 1
  }
}
layer {
  name: "relu2"
  type: "ReLU"
  bottom: "pool2"
  top: "relu2"
}
layer {
  name: "conv3a"
  type: "Convolution"
  bottom: "relu2"
  top: "conv3a"
  param {
    lr_mult: 1
    decay_mult: 1
  }
  param {
    lr_mult: 2
    decay_mult: 0
  }
  convolution_param {
    num_output: 192
    kernel_size: 1
    stride: 1
    weight_filler {
      type: "gaussian"
      std: 0.01
    }
    bias_filler {
      type: "constant"
      value: 0.1
    }
  }
}
layer {
  name: "conv3"
  type: "Convolution"
  bottom: "conv3a"
  top: "conv3"
  param {
    lr_mult: 1
    decay_mult: 1
  }
  param {
    lr_mult: 2
    decay_mult: 0
  }
  convolution_param {
    num_output: 192
    pad: 3
    kernel_size: 3
    stride: 1
    weight_filler {
      type: "gaussian"
      std: 0.01
    }
    bias_filler {
      type: "constant"
      value: 0.1
    }
  }
}
layer {
  name: "pool3"
  type: "Pooling"
  bottom: "conv3"
  top: "pool3"
  pooling_param {
    pool: MAX
    kernel_size: 3
    stride: 2
    pad: 1
  }
}
layer {
  name: "relu3"
  type: "ReLU"
  bottom: "pool3"
  top: "relu3"
}
layer {
  name: "conv4a"
  type: "Convolution"
  bottom: "relu3"
  top: "conv4a"
  param {
    lr_mult: 1
    decay_mult: 1
  }
  param {
    lr_mult: 2
    decay_mult: 0
  }
  convolution_param {
    num_output: 384
    kernel_size: 1
    stride: 1
    weight_filler {
      type: "gaussian"
      std: 0.01
    }
    bias_filler {
      type: "constant"
      value: 0.1
    }
  }
}
layer {
  name: "conv4"
  type: "Convolution"
  bottom: "conv4a"
  top: "conv4"
  param {
    lr_mult: 1
    decay_mult: 1
  }
  param {
    lr_mult: 2
    decay_mult: 0
  }
  convolution_param {
    num_output: 384
    pad: 1
    kernel_size: 3
    stride: 1
    weight_filler {
      type: "gaussian"
      std: 0.01
    }
    bias_filler {
      type: "constant"
      value: 0.1
    }
  }
}
layer {
  name: "conv5a"
  type: "Convolution"
  bottom: "conv4"
  top: "conv5a"
  param {
    lr_mult: 1
    decay_mult: 1
  }
  param {
    lr_mult: 2
    decay_mult: 0
  }
  convolution_param {
    num_output: 256
    kernel_size: 1
    stride: 1
    weight_filler {
      type: "gaussian"
      std: 0.01
    }
    bias_filler {
      type: "constant"
      value: 0.1
    }
  }
}
layer {
  name: "conv5"
  type: "Convolution"
  bottom: "conv5a"
  top: "conv5"
  param {
    lr_mult: 1
    decay_mult: 1
  }
  param {
    lr_mult: 2
    decay_mult: 0
  }
  convolution_param {
    num_output: 256
    pad: 1
    kernel_size: 3
    stride: 1
    weight_filler {
      type: "gaussian"
      std: 0.01
    }
    bias_filler {
      type: "constant"
      value: 0.1
    }
  }
}
layer {
  name: "conv6a"
  type: "Convolution"
  bottom: "conv5"
  top: "conv6a"
  param {
    lr_mult: 1
    decay_mult: 1
  }
  param {
    lr_mult: 2
    decay_mult: 0
  }
  convolution_param {
    num_output: 256
    kernel_size: 1
    stride: 1
    weight_filler {
      type: "gaussian"
      std: 0.01
    }
    bias_filler {
      type: "constant"
      value: 0.1
    }
  }
}
layer {
  name: "conv6"
  type: "Convolution"
  bottom: "conv6a"
  top: "conv6"
  param {
    lr_mult: 1
    decay_mult: 1
  }
  param {
    lr_mult: 2
    decay_mult: 0
  }
  convolution_param {
    num_output: 256
    pad: 1
    kernel_size: 3
    stride: 1
    weight_filler {
      type: "gaussian"
      std: 0.01
    }
    bias_filler {
      type: "constant"
      value: 0.1
    }
  }
}
layer {
  name: "pool4"
  type: "Pooling"
  bottom: "conv6"
  top: "pool4"
  pooling_param {
    pool: MAX
    kernel_size: 3
    stride: 2
  }
}
layer {
  name: "relu4"
  type: "ReLU"
  bottom: "pool4"
  top: "relu4"
}
layer {
  name: "fc1"
  type: "InnerProduct"
  bottom: "relu4"
  top: "fc1"
  param {
    lr_mult: 1
    decay_mult: 1
  }
  param {
    lr_mult: 2
    decay_mult: 0
  }
  inner_product_param {
    num_output: 128
    weight_filler {
      type: "gaussian"
      std: 0.01
    }
    bias_filler {
      type: "constant"
      value: 0
    }
  }
}
layer {
  name: "relu5"
  type: "ReLU"
  bottom: "fc1"
  top: "relu5"
}
layer {
  name: "fc2"
  type: "InnerProduct"
  bottom: "relu5"
  top: "fc2"
  param {
    lr_mult: 1
    decay_mult: 1
  }
  param {
    lr_mult: 2
    decay_mult: 0
  }
  inner_product_param {
    num_output: 2
    weight_filler {
      type: "gaussian"
      std: 0.01
    }
    bias_filler {
      type: "constant"
      value: 0
    }
  }
}
layer {
  name: "loss"
  type: "SoftmaxWithLoss"
  bottom: "fc2"
  bottom: "label"
  top: "loss"
}
layer {
  name: "accuracy"
  type: "Accuracy"
  bottom: "fc2"
  bottom: "label"
  top: "accuracy"
  include {
    phase: TEST
  }
}
I1212 22:36:51.598597 29091 layer_factory.hpp:77] Creating layer gender
I1212 22:36:51.598677 29091 net.cpp:84] Creating Layer gender
I1212 22:36:51.598747 29091 net.cpp:380] gender -> data
I1212 22:36:51.598816 29091 net.cpp:380] gender -> label
I1212 22:36:51.598896 29091 image_data_layer.cpp:38] Opening file ../../test.lst
I1212 22:36:51.665936 29091 image_data_layer.cpp:63] A total of 12000 images.
I1212 22:36:51.693168 29091 image_data_layer.cpp:90] output data size: 1,3,150,150
I1212 22:36:51.776692 29091 net.cpp:122] Setting up gender
I1212 22:36:51.776769 29091 net.cpp:129] Top shape: 1 3 150 150 (67500)
I1212 22:36:51.776828 29091 net.cpp:129] Top shape: 1 (1)
I1212 22:36:51.776882 29091 net.cpp:137] Memory required for data: 270004
I1212 22:36:51.776947 29091 layer_factory.hpp:77] Creating layer label_gender_1_split
I1212 22:36:51.777050 29091 net.cpp:84] Creating Layer label_gender_1_split
I1212 22:36:51.777112 29091 net.cpp:406] label_gender_1_split <- label
I1212 22:36:51.777176 29091 net.cpp:380] label_gender_1_split -> label_gender_1_split_0
I1212 22:36:51.777238 29091 net.cpp:380] label_gender_1_split -> label_gender_1_split_1
I1212 22:36:51.777397 29091 net.cpp:122] Setting up label_gender_1_split
I1212 22:36:51.777464 29091 net.cpp:129] Top shape: 1 (1)
I1212 22:36:51.777529 29091 net.cpp:129] Top shape: 1 (1)
I1212 22:36:51.777595 29091 net.cpp:137] Memory required for data: 270012
I1212 22:36:51.777645 29091 layer_factory.hpp:77] Creating layer conv1
I1212 22:36:51.777724 29091 net.cpp:84] Creating Layer conv1
I1212 22:36:51.777773 29091 net.cpp:406] conv1 <- data
I1212 22:36:51.777832 29091 net.cpp:380] conv1 -> conv1
I1212 22:36:51.778342 29091 net.cpp:122] Setting up conv1
I1212 22:36:51.778416 29091 net.cpp:129] Top shape: 1 3 75 75 (16875)
I1212 22:36:51.778470 29091 net.cpp:137] Memory required for data: 337512
I1212 22:36:51.778545 29091 layer_factory.hpp:77] Creating layer pool1
I1212 22:36:51.778601 29091 net.cpp:84] Creating Layer pool1
I1212 22:36:51.778652 29091 net.cpp:406] pool1 <- conv1
I1212 22:36:51.778708 29091 net.cpp:380] pool1 -> pool1
I1212 22:36:51.778821 29091 net.cpp:122] Setting up pool1
I1212 22:36:51.778885 29091 net.cpp:129] Top shape: 1 3 38 38 (4332)
I1212 22:36:51.778946 29091 net.cpp:137] Memory required for data: 354840
I1212 22:36:51.779002 29091 layer_factory.hpp:77] Creating layer norm1
I1212 22:36:51.779075 29091 net.cpp:84] Creating Layer norm1
I1212 22:36:51.779124 29091 net.cpp:406] norm1 <- pool1
I1212 22:36:51.779180 29091 net.cpp:380] norm1 -> norm1
I1212 22:36:51.779289 29091 net.cpp:122] Setting up norm1
I1212 22:36:51.779359 29091 net.cpp:129] Top shape: 1 3 38 38 (4332)
I1212 22:36:51.779417 29091 net.cpp:137] Memory required for data: 372168
I1212 22:36:51.779464 29091 layer_factory.hpp:77] Creating layer relu1
I1212 22:36:51.779517 29091 net.cpp:84] Creating Layer relu1
I1212 22:36:51.779573 29091 net.cpp:406] relu1 <- norm1
I1212 22:36:51.779626 29091 net.cpp:380] relu1 -> relu1
I1212 22:36:51.779731 29091 net.cpp:122] Setting up relu1
I1212 22:36:51.779804 29091 net.cpp:129] Top shape: 1 3 38 38 (4332)
I1212 22:36:51.779855 29091 net.cpp:137] Memory required for data: 389496
I1212 22:36:51.779914 29091 layer_factory.hpp:77] Creating layer conv2a
I1212 22:36:51.799381 29091 net.cpp:84] Creating Layer conv2a
I1212 22:36:51.799917 29091 net.cpp:406] conv2a <- relu1
I1212 22:36:51.800016 29091 net.cpp:380] conv2a -> conv2a
I1212 22:36:51.800523 29091 net.cpp:122] Setting up conv2a
I1212 22:36:51.800603 29091 net.cpp:129] Top shape: 1 64 38 38 (92416)
I1212 22:36:51.800654 29091 net.cpp:137] Memory required for data: 759160
I1212 22:36:51.800729 29091 layer_factory.hpp:77] Creating layer conv2
I1212 22:36:51.800793 29091 net.cpp:84] Creating Layer conv2
I1212 22:36:51.800849 29091 net.cpp:406] conv2 <- conv2a
I1212 22:36:51.800907 29091 net.cpp:380] conv2 -> conv2
I1212 22:36:51.802088 29091 net.cpp:122] Setting up conv2
I1212 22:36:51.802170 29091 net.cpp:129] Top shape: 1 64 38 38 (92416)
I1212 22:36:51.802253 29091 net.cpp:137] Memory required for data: 1128824
I1212 22:36:51.802348 29091 layer_factory.hpp:77] Creating layer norm2
I1212 22:36:51.802417 29091 net.cpp:84] Creating Layer norm2
I1212 22:36:51.802467 29091 net.cpp:406] norm2 <- conv2
I1212 22:36:51.802525 29091 net.cpp:380] norm2 -> norm2
I1212 22:36:51.802645 29091 net.cpp:122] Setting up norm2
I1212 22:36:51.802711 29091 net.cpp:129] Top shape: 1 64 38 38 (92416)
I1212 22:36:51.802763 29091 net.cpp:137] Memory required for data: 1498488
I1212 22:36:51.802816 29091 layer_factory.hpp:77] Creating layer pool2
I1212 22:36:51.802876 29091 net.cpp:84] Creating Layer pool2
I1212 22:36:51.818328 29091 net.cpp:406] pool2 <- norm2
I1212 22:36:51.818379 29091 net.cpp:380] pool2 -> pool2
I1212 22:36:51.818508 29091 net.cpp:122] Setting up pool2
I1212 22:36:51.818575 29091 net.cpp:129] Top shape: 1 64 20 20 (25600)
I1212 22:36:51.818645 29091 net.cpp:137] Memory required for data: 1600888
I1212 22:36:51.818701 29091 layer_factory.hpp:77] Creating layer relu2
I1212 22:36:51.818770 29091 net.cpp:84] Creating Layer relu2
I1212 22:36:51.818819 29091 net.cpp:406] relu2 <- pool2
I1212 22:36:51.818883 29091 net.cpp:380] relu2 -> relu2
I1212 22:36:51.818980 29091 net.cpp:122] Setting up relu2
I1212 22:36:51.819063 29091 net.cpp:129] Top shape: 1 64 20 20 (25600)
I1212 22:36:51.819126 29091 net.cpp:137] Memory required for data: 1703288
I1212 22:36:51.819175 29091 layer_factory.hpp:77] Creating layer conv3a
I1212 22:36:51.819237 29091 net.cpp:84] Creating Layer conv3a
I1212 22:36:51.819298 29091 net.cpp:406] conv3a <- relu2
I1212 22:36:51.819365 29091 net.cpp:380] conv3a -> conv3a
I1212 22:36:51.820117 29091 net.cpp:122] Setting up conv3a
I1212 22:36:51.820192 29091 net.cpp:129] Top shape: 1 192 20 20 (76800)
I1212 22:36:51.820257 29091 net.cpp:137] Memory required for data: 2010488
I1212 22:36:51.820328 29091 layer_factory.hpp:77] Creating layer conv3
I1212 22:36:51.820400 29091 net.cpp:84] Creating Layer conv3
I1212 22:36:51.820452 29091 net.cpp:406] conv3 <- conv3a
I1212 22:36:51.820530 29091 net.cpp:380] conv3 -> conv3
I1212 22:36:51.876366 29091 net.cpp:122] Setting up conv3
I1212 22:36:51.876451 29091 net.cpp:129] Top shape: 1 192 24 24 (110592)
I1212 22:36:51.876502 29091 net.cpp:137] Memory required for data: 2452856
I1212 22:36:51.876579 29091 layer_factory.hpp:77] Creating layer pool3
I1212 22:36:51.876642 29091 net.cpp:84] Creating Layer pool3
I1212 22:36:51.876695 29091 net.cpp:406] pool3 <- conv3
I1212 22:36:51.876751 29091 net.cpp:380] pool3 -> pool3
I1212 22:36:51.876891 29091 net.cpp:122] Setting up pool3
I1212 22:36:51.879979 29091 net.cpp:129] Top shape: 1 192 13 13 (32448)
I1212 22:36:51.880035 29091 net.cpp:137] Memory required for data: 2582648
I1212 22:36:51.880093 29091 layer_factory.hpp:77] Creating layer relu3
I1212 22:36:51.880146 29091 net.cpp:84] Creating Layer relu3
I1212 22:36:51.880203 29091 net.cpp:406] relu3 <- pool3
I1212 22:36:51.880267 29091 net.cpp:380] relu3 -> relu3
I1212 22:36:51.880381 29091 net.cpp:122] Setting up relu3
I1212 22:36:51.880450 29091 net.cpp:129] Top shape: 1 192 13 13 (32448)
I1212 22:36:51.880508 29091 net.cpp:137] Memory required for data: 2712440
I1212 22:36:51.880568 29091 layer_factory.hpp:77] Creating layer conv4a
I1212 22:36:51.880628 29091 net.cpp:84] Creating Layer conv4a
I1212 22:36:51.880695 29091 net.cpp:406] conv4a <- relu3
I1212 22:36:51.880753 29091 net.cpp:380] conv4a -> conv4a
I1212 22:36:51.882660 29091 net.cpp:122] Setting up conv4a
I1212 22:36:51.882731 29091 net.cpp:129] Top shape: 1 384 13 13 (64896)
I1212 22:36:51.882794 29091 net.cpp:137] Memory required for data: 2972024
I1212 22:36:51.882863 29091 layer_factory.hpp:77] Creating layer conv4
I1212 22:36:51.903951 29091 net.cpp:84] Creating Layer conv4
I1212 22:36:51.904016 29091 net.cpp:406] conv4 <- conv4a
I1212 22:36:51.904084 29091 net.cpp:380] conv4 -> conv4
I1212 22:36:52.041419 29091 net.cpp:122] Setting up conv4
I1212 22:36:52.041512 29091 net.cpp:129] Top shape: 1 384 13 13 (64896)
I1212 22:36:52.041568 29091 net.cpp:137] Memory required for data: 3231608
I1212 22:36:52.041676 29091 layer_factory.hpp:77] Creating layer conv5a
I1212 22:36:52.041764 29091 net.cpp:84] Creating Layer conv5a
I1212 22:36:52.041826 29091 net.cpp:406] conv5a <- conv4
I1212 22:36:52.041888 29091 net.cpp:380] conv5a -> conv5a
I1212 22:36:52.065240 29091 net.cpp:122] Setting up conv5a
I1212 22:36:52.065328 29091 net.cpp:129] Top shape: 1 256 13 13 (43264)
I1212 22:36:52.065384 29091 net.cpp:137] Memory required for data: 3404664
I1212 22:36:52.065449 29091 layer_factory.hpp:77] Creating layer conv5
I1212 22:36:52.065516 29091 net.cpp:84] Creating Layer conv5
I1212 22:36:52.065572 29091 net.cpp:406] conv5 <- conv5a
I1212 22:36:52.065630 29091 net.cpp:380] conv5 -> conv5
I1212 22:36:52.148530 29091 net.cpp:122] Setting up conv5
I1212 22:36:52.148617 29091 net.cpp:129] Top shape: 1 256 13 13 (43264)
I1212 22:36:52.148680 29091 net.cpp:137] Memory required for data: 3577720
I1212 22:36:52.148766 29091 layer_factory.hpp:77] Creating layer conv6a
I1212 22:36:52.148834 29091 net.cpp:84] Creating Layer conv6a
I1212 22:36:52.148895 29091 net.cpp:406] conv6a <- conv5
I1212 22:36:52.148967 29091 net.cpp:380] conv6a -> conv6a
I1212 22:36:52.150710 29091 net.cpp:122] Setting up conv6a
I1212 22:36:52.150789 29091 net.cpp:129] Top shape: 1 256 13 13 (43264)
I1212 22:36:52.150847 29091 net.cpp:137] Memory required for data: 3750776
I1212 22:36:52.150925 29091 layer_factory.hpp:77] Creating layer conv6
I1212 22:36:52.151005 29091 net.cpp:84] Creating Layer conv6
I1212 22:36:52.151059 29091 net.cpp:406] conv6 <- conv6a
I1212 22:36:52.151139 29091 net.cpp:380] conv6 -> conv6
I1212 22:36:52.234246 29091 net.cpp:122] Setting up conv6
I1212 22:36:52.234325 29091 net.cpp:129] Top shape: 1 256 13 13 (43264)
I1212 22:36:52.234381 29091 net.cpp:137] Memory required for data: 3923832
I1212 22:36:52.234441 29091 layer_factory.hpp:77] Creating layer pool4
I1212 22:36:52.234510 29091 net.cpp:84] Creating Layer pool4
I1212 22:36:52.234568 29091 net.cpp:406] pool4 <- conv6
I1212 22:36:52.234637 29091 net.cpp:380] pool4 -> pool4
I1212 22:36:52.234766 29091 net.cpp:122] Setting up pool4
I1212 22:36:52.234832 29091 net.cpp:129] Top shape: 1 256 6 6 (9216)
I1212 22:36:52.234880 29091 net.cpp:137] Memory required for data: 3960696
I1212 22:36:52.234944 29091 layer_factory.hpp:77] Creating layer relu4
I1212 22:36:52.235005 29091 net.cpp:84] Creating Layer relu4
I1212 22:36:52.235067 29091 net.cpp:406] relu4 <- pool4
I1212 22:36:52.235122 29091 net.cpp:380] relu4 -> relu4
I1212 22:36:52.235221 29091 net.cpp:122] Setting up relu4
I1212 22:36:52.235301 29091 net.cpp:129] Top shape: 1 256 6 6 (9216)
I1212 22:36:52.235368 29091 net.cpp:137] Memory required for data: 3997560
I1212 22:36:52.235419 29091 layer_factory.hpp:77] Creating layer fc1
I1212 22:36:52.235481 29091 net.cpp:84] Creating Layer fc1
I1212 22:36:52.235539 29091 net.cpp:406] fc1 <- relu4
I1212 22:36:52.235612 29091 net.cpp:380] fc1 -> fc1
I1212 22:36:52.383393 29091 net.cpp:122] Setting up fc1
I1212 22:36:52.383482 29091 net.cpp:129] Top shape: 1 128 (128)
I1212 22:36:52.383549 29091 net.cpp:137] Memory required for data: 3998072
I1212 22:36:52.383621 29091 layer_factory.hpp:77] Creating layer relu5
I1212 22:36:52.383682 29091 net.cpp:84] Creating Layer relu5
I1212 22:36:52.383733 29091 net.cpp:406] relu5 <- fc1
I1212 22:36:52.383806 29091 net.cpp:380] relu5 -> relu5
I1212 22:36:52.383908 29091 net.cpp:122] Setting up relu5
I1212 22:36:52.383994 29091 net.cpp:129] Top shape: 1 128 (128)
I1212 22:36:52.384047 29091 net.cpp:137] Memory required for data: 3998584
I1212 22:36:52.384101 29091 layer_factory.hpp:77] Creating layer fc2
I1212 22:36:52.384162 29091 net.cpp:84] Creating Layer fc2
I1212 22:36:52.384218 29091 net.cpp:406] fc2 <- relu5
I1212 22:36:52.384282 29091 net.cpp:380] fc2 -> fc2
I1212 22:36:52.384524 29091 net.cpp:122] Setting up fc2
I1212 22:36:52.384593 29091 net.cpp:129] Top shape: 1 2 (2)
I1212 22:36:52.384651 29091 net.cpp:137] Memory required for data: 3998592
I1212 22:36:52.384718 29091 layer_factory.hpp:77] Creating layer fc2_fc2_0_split
I1212 22:36:52.384806 29091 net.cpp:84] Creating Layer fc2_fc2_0_split
I1212 22:36:52.384883 29091 net.cpp:406] fc2_fc2_0_split <- fc2
I1212 22:36:52.384949 29091 net.cpp:380] fc2_fc2_0_split -> fc2_fc2_0_split_0
I1212 22:36:52.385022 29091 net.cpp:380] fc2_fc2_0_split -> fc2_fc2_0_split_1
I1212 22:36:52.385159 29091 net.cpp:122] Setting up fc2_fc2_0_split
I1212 22:36:52.385223 29091 net.cpp:129] Top shape: 1 2 (2)
I1212 22:36:52.385285 29091 net.cpp:129] Top shape: 1 2 (2)
I1212 22:36:52.385332 29091 net.cpp:137] Memory required for data: 3998608
I1212 22:36:52.385380 29091 layer_factory.hpp:77] Creating layer loss
I1212 22:36:52.385435 29091 net.cpp:84] Creating Layer loss
I1212 22:36:52.385485 29091 net.cpp:406] loss <- fc2_fc2_0_split_0
I1212 22:36:52.385541 29091 net.cpp:406] loss <- label_gender_1_split_0
I1212 22:36:52.385601 29091 net.cpp:380] loss -> loss
…
