…
I1219 22:47:17.217792 13491 net.cpp:294] The NetState phase (0) differed from the phase (1) specified by a rule in layer accuracy
I1219 22:47:17.217941 13491 net.cpp:51] Initializing net from parameters: 
name: "nNetCCN"
state {
  phase: TRAIN
  level: 0
  stage: ""
}
layer {
  name: "gender"
  type: "ImageData"
  top: "data"
  top: "label"
  include {
    phase: TRAIN
  }
  transform_param {
    scale: 0.00390625
  }
  image_data_param {
    source: "../../train.lst"
    batch_size: 1
    new_height: 150
    new_width: 150
    is_color: true
    root_folder: "../../data/"
  }
}
layer {
  name: "conv1"
  type: "Convolution"
  bottom: "data"
  top: "conv1"
  param {
    lr_mult: 1
    decay_mult: 1
  }
  param {
    lr_mult: 2
    decay_mult: 0
  }
  convolution_param {
    num_output: 40
    kernel_size: 3
    stride: 1
  }
}
layer {
  name: "relu1"
  type: "ReLU"
  bottom: "conv1"
  top: "conv1"
}
layer {
  name: "conv2"
  type: "Convolution"
  bottom: "conv1"
  top: "conv2"
  param {
    lr_mult: 1
    decay_mult: 1
  }
  param {
    lr_mult: 2
    decay_mult: 0
  }
  convolution_param {
    num_output: 64
    kernel_size: 3
    stride: 1
  }
}
layer {
  name: "relu2"
  type: "ReLU"
  bottom: "conv2"
  top: "conv2"
}
layer {
  name: "fc1"
  type: "InnerProduct"
  bottom: "conv2"
  top: "fc1"
  param {
    lr_mult: 1
    decay_mult: 1
  }
  param {
    lr_mult: 2
    decay_mult: 0
  }
  inner_product_param {
    num_output: 256
    weight_filler {
      type: "gaussian"
      std: 0.01
    }
    bias_filler {
      type: "constant"
      value: 0
    }
  }
}
layer {
  name: "relu3_g"
  type: "ReLU"
  bottom: "fc1"
  top: "fc1"
}
layer {
  name: "fc2_g"
  type: "InnerProduct"
  bottom: "fc1"
  top: "fc2_g"
  param {
    lr_mult: 1
    decay_mult: 1
  }
  param {
    lr_mult: 2
    decay_mult: 0
  }
  inner_product_param {
    num_output: 2
    weight_filler {
      type: "xavier"
    }
    bias_filler {
      type: "constant"
      value: 0
    }
  }
}
layer {
  name: "loss"
  type: "SoftmaxWithLoss"
  bottom: "fc2_g"
  bottom: "label"
  top: "loss"
}
I1219 22:47:17.218106 13491 layer_factory.hpp:77] Creating layer gender
I1219 22:47:17.218233 13491 net.cpp:84] Creating Layer gender
I1219 22:47:17.218287 13491 net.cpp:380] gender -> data
I1219 22:47:17.218372 13491 net.cpp:380] gender -> label
I1219 22:47:17.218471 13491 image_data_layer.cpp:38] Opening file ../../train.lst
I1219 22:47:17.240833 13491 image_data_layer.cpp:63] A total of 47000 images.
I1219 22:47:18.563072 13491 image_data_layer.cpp:90] output data size: 1,3,150,150
I1219 22:47:18.566468 13491 net.cpp:122] Setting up gender
I1219 22:47:18.566532 13491 net.cpp:129] Top shape: 1 3 150 150 (67500)
I1219 22:47:18.566589 13491 net.cpp:129] Top shape: 1 (1)
I1219 22:47:18.566612 13491 net.cpp:137] Memory required for data: 270004
I1219 22:47:18.566639 13491 layer_factory.hpp:77] Creating layer conv1
I1219 22:47:18.566721 13491 net.cpp:84] Creating Layer conv1
I1219 22:47:18.566747 13491 net.cpp:406] conv1 <- data
I1219 22:47:18.566781 13491 net.cpp:380] conv1 -> conv1
I1219 22:47:18.569017 13491 net.cpp:122] Setting up conv1
I1219 22:47:18.569057 13491 net.cpp:129] Top shape: 1 40 148 148 (876160)
I1219 22:47:18.569080 13491 net.cpp:137] Memory required for data: 3774644
I1219 22:47:18.569124 13491 layer_factory.hpp:77] Creating layer relu1
I1219 22:47:18.569195 13491 net.cpp:84] Creating Layer relu1
I1219 22:47:18.569226 13491 net.cpp:406] relu1 <- conv1
I1219 22:47:18.569249 13491 net.cpp:367] relu1 -> conv1 (in-place)
I1219 22:47:18.569284 13491 net.cpp:122] Setting up relu1
I1219 22:47:18.569308 13491 net.cpp:129] Top shape: 1 40 148 148 (876160)
I1219 22:47:18.569327 13491 net.cpp:137] Memory required for data: 7279284
I1219 22:47:18.569346 13491 layer_factory.hpp:77] Creating layer conv2
I1219 22:47:18.569368 13491 net.cpp:84] Creating Layer conv2
I1219 22:47:18.569388 13491 net.cpp:406] conv2 <- conv1
I1219 22:47:18.569411 13491 net.cpp:380] conv2 -> conv2
I1219 22:47:18.569617 13491 net.cpp:122] Setting up conv2
I1219 22:47:18.569649 13491 net.cpp:129] Top shape: 1 64 146 146 (1364224)
I1219 22:47:18.569670 13491 net.cpp:137] Memory required for data: 12736180
I1219 22:47:18.569694 13491 layer_factory.hpp:77] Creating layer relu2
I1219 22:47:18.569718 13491 net.cpp:84] Creating Layer relu2
I1219 22:47:18.569738 13491 net.cpp:406] relu2 <- conv2
I1219 22:47:18.569759 13491 net.cpp:367] relu2 -> conv2 (in-place)
I1219 22:47:18.569782 13491 net.cpp:122] Setting up relu2
I1219 22:47:18.569804 13491 net.cpp:129] Top shape: 1 64 146 146 (1364224)
I1219 22:47:18.569823 13491 net.cpp:137] Memory required for data: 18193076
I1219 22:47:18.569844 13491 layer_factory.hpp:77] Creating layer fc1
I1219 22:47:18.569881 13491 net.cpp:84] Creating Layer fc1
I1219 22:47:18.569902 13491 net.cpp:406] fc1 <- conv2
I1219 22:47:18.569947 13491 net.cpp:380] fc1 -> fc1
I1219 22:47:23.813019 13491 net.cpp:122] Setting up fc1
I1219 22:47:23.813186 13491 net.cpp:129] Top shape: 1 256 (256)
I1219 22:47:23.813215 13491 net.cpp:137] Memory required for data: 18194100
I1219 22:47:23.813256 13491 layer_factory.hpp:77] Creating layer relu3_g
I1219 22:47:23.813290 13491 net.cpp:84] Creating Layer relu3_g
I1219 22:47:23.813314 13491 net.cpp:406] relu3_g <- fc1
I1219 22:47:23.813340 13491 net.cpp:367] relu3_g -> fc1 (in-place)
I1219 22:47:23.813369 13491 net.cpp:122] Setting up relu3_g
I1219 22:47:23.813391 13491 net.cpp:129] Top shape: 1 256 (256)
I1219 22:47:23.813410 13491 net.cpp:137] Memory required for data: 18195124
I1219 22:47:23.813429 13491 layer_factory.hpp:77] Creating layer fc2_g
I1219 22:47:23.813457 13491 net.cpp:84] Creating Layer fc2_g
I1219 22:47:23.813477 13491 net.cpp:406] fc2_g <- fc1
I1219 22:47:23.813499 13491 net.cpp:380] fc2_g -> fc2_g
I1219 22:47:23.814460 13491 net.cpp:122] Setting up fc2_g
I1219 22:47:23.814494 13491 net.cpp:129] Top shape: 1 2 (2)
I1219 22:47:23.814515 13491 net.cpp:137] Memory required for data: 18195132
I1219 22:47:23.814538 13491 layer_factory.hpp:77] Creating layer loss
I1219 22:47:23.814589 13491 net.cpp:84] Creating Layer loss
I1219 22:47:23.814610 13491 net.cpp:406] loss <- fc2_g
I1219 22:47:23.814632 13491 net.cpp:406] loss <- label
I1219 22:47:23.814656 13491 net.cpp:380] loss -> loss
I1219 22:47:23.814730 13491 layer_factory.hpp:77] Creating layer loss
…
I1219 22:47:23.817553 13491 net.cpp:294] The NetState phase (1) differed from the phase (0) specified by a rule in layer gender
I1219 22:47:23.817694 13491 net.cpp:51] Initializing net from parameters: 
name: "nNetCCN"
state {
  phase: TEST
}
layer {
  name: "gender"
  type: "ImageData"
  top: "data"
  top: "label"
  include {
    phase: TEST
  }
  transform_param {
    scale: 0.00390625
  }
  image_data_param {
    source: "../../test.lst"
    batch_size: 120
    new_height: 150
    new_width: 150
    is_color: true
    root_folder: "../../data/"
  }
}
layer {
  name: "conv1"
  type: "Convolution"
  bottom: "data"
  top: "conv1"
  param {
    lr_mult: 1
    decay_mult: 1
  }
  param {
    lr_mult: 2
    decay_mult: 0
  }
  convolution_param {
    num_output: 40
    kernel_size: 3
    stride: 1
  }
}
layer {
  name: "relu1"
  type: "ReLU"
  bottom: "conv1"
  top: "conv1"
}
layer {
  name: "conv2"
  type: "Convolution"
  bottom: "conv1"
  top: "conv2"
  param {
    lr_mult: 1
    decay_mult: 1
  }
  param {
    lr_mult: 2
    decay_mult: 0
  }
  convolution_param {
    num_output: 64
    kernel_size: 3
    stride: 1
  }
}
layer {
  name: "relu2"
  type: "ReLU"
  bottom: "conv2"
  top: "conv2"
}
layer {
  name: "fc1"
  type: "InnerProduct"
  bottom: "conv2"
  top: "fc1"
  param {
    lr_mult: 1
    decay_mult: 1
  }
  param {
    lr_mult: 2
    decay_mult: 0
  }
  inner_product_param {
    num_output: 256
    weight_filler {
      type: "gaussian"
      std: 0.01
    }
    bias_filler {
      type: "constant"
      value: 0
    }
  }
}
layer {
  name: "relu3_g"
  type: "ReLU"
  bottom: "fc1"
  top: "fc1"
}
layer {
  name: "fc2_g"
  type: "InnerProduct"
  bottom: "fc1"
  top: "fc2_g"
  param {
    lr_mult: 1
    decay_mult: 1
  }
  param {
    lr_mult: 2
    decay_mult: 0
  }
  inner_product_param {
    num_output: 2
    weight_filler {
      type: "xavier"
    }
    bias_filler {
      type: "constant"
      value: 0
    }
  }
}
layer {
  name: "loss"
  type: "SoftmaxWithLoss"
  bottom: "fc2_g"
  bottom: "label"
  top: "loss"
}
layer {
  name: "accuracy"
  type: "Accuracy"
  bottom: "fc2_g"
  bottom: "label"
  top: "accuracy"
  include {
    phase: TEST
  }
}
I1219 22:47:23.817802 13491 layer_factory.hpp:77] Creating layer gender
I1219 22:47:23.817840 13491 net.cpp:84] Creating Layer gender
I1219 22:47:23.817864 13491 net.cpp:380] gender -> data
I1219 22:47:23.817890 13491 net.cpp:380] gender -> label
I1219 22:47:23.817917 13491 image_data_layer.cpp:38] Opening file ../../test.lst
I1219 22:47:23.822510 13491 image_data_layer.cpp:63] A total of 12000 images.
I1219 22:47:23.825350 13491 image_data_layer.cpp:90] output data size: 120,3,150,150
I1219 22:47:23.917805 13491 net.cpp:122] Setting up gender
I1219 22:47:23.917955 13491 net.cpp:129] Top shape: 120 3 150 150 (8100000)
I1219 22:47:23.917984 13491 net.cpp:129] Top shape: 120 (120)
I1219 22:47:23.918010 13491 net.cpp:137] Memory required for data: 32400480
I1219 22:47:23.918035 13491 layer_factory.hpp:77] Creating layer label_gender_1_split
I1219 22:47:23.918089 13491 net.cpp:84] Creating Layer label_gender_1_split
I1219 22:47:23.918114 13491 net.cpp:406] label_gender_1_split <- label
I1219 22:47:23.918140 13491 net.cpp:380] label_gender_1_split -> label_gender_1_split_0
I1219 22:47:23.918171 13491 net.cpp:380] label_gender_1_split -> label_gender_1_split_1
I1219 22:47:23.918259 13491 net.cpp:122] Setting up label_gender_1_split
I1219 22:47:23.918288 13491 net.cpp:129] Top shape: 120 (120)
I1219 22:47:23.918310 13491 net.cpp:129] Top shape: 120 (120)
I1219 22:47:23.918329 13491 net.cpp:137] Memory required for data: 32401440
I1219 22:47:23.918349 13491 layer_factory.hpp:77] Creating layer conv1
I1219 22:47:23.918380 13491 net.cpp:84] Creating Layer conv1
I1219 22:47:23.918401 13491 net.cpp:406] conv1 <- data
I1219 22:47:23.918424 13491 net.cpp:380] conv1 -> conv1
I1219 22:47:23.918712 13491 net.cpp:122] Setting up conv1
I1219 22:47:23.918745 13491 net.cpp:129] Top shape: 120 40 148 148 (105139200)
I1219 22:47:23.918795 13491 net.cpp:137] Memory required for data: 452958240
I1219 22:47:23.918834 13491 layer_factory.hpp:77] Creating layer relu1
I1219 22:47:23.918861 13491 net.cpp:84] Creating Layer relu1
I1219 22:47:23.918881 13491 net.cpp:406] relu1 <- conv1
I1219 22:47:23.918903 13491 net.cpp:367] relu1 -> conv1 (in-place)
I1219 22:47:23.918926 13491 net.cpp:122] Setting up relu1
I1219 22:47:23.918949 13491 net.cpp:129] Top shape: 120 40 148 148 (105139200)
I1219 22:47:23.918968 13491 net.cpp:137] Memory required for data: 873515040
I1219 22:47:23.918987 13491 layer_factory.hpp:77] Creating layer conv2
I1219 22:47:23.919018 13491 net.cpp:84] Creating Layer conv2
I1219 22:47:23.919040 13491 net.cpp:406] conv2 <- conv1
I1219 22:47:23.919064 13491 net.cpp:380] conv2 -> conv2
I1219 22:47:23.919294 13491 net.cpp:122] Setting up conv2
I1219 22:47:23.919327 13491 net.cpp:129] Top shape: 120 64 146 146 (163706880)
I1219 22:47:23.919347 13491 net.cpp:137] Memory required for data: 1528342560
I1219 22:47:23.919370 13491 layer_factory.hpp:77] Creating layer relu2
I1219 22:47:23.919394 13491 net.cpp:84] Creating Layer relu2
I1219 22:47:23.919414 13491 net.cpp:406] relu2 <- conv2
I1219 22:47:23.919435 13491 net.cpp:367] relu2 -> conv2 (in-place)
I1219 22:47:23.919457 13491 net.cpp:122] Setting up relu2
I1219 22:47:23.919481 13491 net.cpp:129] Top shape: 120 64 146 146 (163706880)
I1219 22:47:23.919498 13491 net.cpp:137] Memory required for data: 2183170080
I1219 22:47:23.919517 13491 layer_factory.hpp:77] Creating layer fc1
I1219 22:47:23.919540 13491 net.cpp:84] Creating Layer fc1
I1219 22:47:23.919560 13491 net.cpp:406] fc1 <- conv2
I1219 22:47:23.919582 13491 net.cpp:380] fc1 -> fc1
I1219 22:47:29.308238 13491 net.cpp:122] Setting up fc1
I1219 22:47:29.308405 13491 net.cpp:129] Top shape: 120 256 (30720)
I1219 22:47:29.308432 13491 net.cpp:137] Memory required for data: 2183292960
I1219 22:47:29.308473 13491 layer_factory.hpp:77] Creating layer relu3_g
I1219 22:47:29.308513 13491 net.cpp:84] Creating Layer relu3_g
I1219 22:47:29.308538 13491 net.cpp:406] relu3_g <- fc1
I1219 22:47:29.308565 13491 net.cpp:367] relu3_g -> fc1 (in-place)
I1219 22:47:29.308593 13491 net.cpp:122] Setting up relu3_g
I1219 22:47:29.308616 13491 net.cpp:129] Top shape: 120 256 (30720)
I1219 22:47:29.308635 13491 net.cpp:137] Memory required for data: 2183415840
I1219 22:47:29.308655 13491 layer_factory.hpp:77] Creating layer fc2_g
I1219 22:47:29.308689 13491 net.cpp:84] Creating Layer fc2_g
I1219 22:47:29.308712 13491 net.cpp:406] fc2_g <- fc1
I1219 22:47:29.308737 13491 net.cpp:380] fc2_g -> fc2_g
I1219 22:47:29.308878 13491 net.cpp:122] Setting up fc2_g
I1219 22:47:29.308910 13491 net.cpp:129] Top shape: 120 2 (240)
I1219 22:47:29.308930 13491 net.cpp:137] Memory required for data: 2183416800
I1219 22:47:29.308954 13491 layer_factory.hpp:77] Creating layer fc2_g_fc2_g_0_split
I1219 22:47:29.308982 13491 net.cpp:84] Creating Layer fc2_g_fc2_g_0_split
I1219 22:47:29.309008 13491 net.cpp:406] fc2_g_fc2_g_0_split <- fc2_g
I1219 22:47:29.309033 13491 net.cpp:380] fc2_g_fc2_g_0_split -> fc2_g_fc2_g_0_split_0
I1219 22:47:29.309062 13491 net.cpp:380] fc2_g_fc2_g_0_split -> fc2_g_fc2_g_0_split_1
I1219 22:47:29.309119 13491 net.cpp:122] Setting up fc2_g_fc2_g_0_split
I1219 22:47:29.309149 13491 net.cpp:129] Top shape: 120 2 (240)
I1219 22:47:29.309171 13491 net.cpp:129] Top shape: 120 2 (240)
I1219 22:47:29.309190 13491 net.cpp:137] Memory required for data: 2183418720
I1219 22:47:29.309211 13491 layer_factory.hpp:77] Creating layer loss
I1219 22:47:29.309234 13491 net.cpp:84] Creating Layer loss
I1219 22:47:29.309254 13491 net.cpp:406] loss <- fc2_g_fc2_g_0_split_0
I1219 22:47:29.309276 13491 net.cpp:406] loss <- label_gender_1_split_0
I1219 22:47:29.309301 13491 net.cpp:380] loss -> loss
…
