…
I1206 20:08:40.392760 18346 net.cpp:294] The NetState phase (0) differed from the phase (1) specified by a rule in layer accuracy
I1206 20:08:40.392838 18346 net.cpp:51] Initializing net from parameters: 
name: "SimpleFCN"
state {
  phase: TRAIN
  level: 0
  stage: ""
}
layer {
  name: "gender"
  type: "ImageData"
  top: "data"
  top: "label"
  include {
    phase: TRAIN
  }
  transform_param {
    scale: 0.00390625
  }
  image_data_param {
    source: "/home/glebg/dev/deep-learning/train.lst"
    batch_size: 100
    new_height: 150
    new_width: 150
  }
}
layer {
  name: "hidden1"
  type: "InnerProduct"
  bottom: "data"
  top: "hidden1"
  inner_product_param {
    num_output: 1000
    weight_filler {
      type: "xavier"
    }
    bias_filler {
      type: "constant"
    }
  }
}
layer {
  name: "relu1"
  type: "ReLU"
  bottom: "hidden1"
  top: "hidden1"
}
layer {
  name: "hidden2"
  type: "InnerProduct"
  bottom: "hidden1"
  top: "hidden2"
  inner_product_param {
    num_output: 750
    weight_filler {
      type: "xavier"
    }
    bias_filler {
      type: "constant"
    }
  }
}
layer {
  name: "relu2"
  type: "ReLU"
  bottom: "hidden2"
  top: "hidden2"
}
layer {
  name: "hidden3"
  type: "InnerProduct"
  bottom: "hidden2"
  top: "hidden3"
  inner_product_param {
    num_output: 250
    weight_filler {
      type: "xavier"
    }
    bias_filler {
      type: "constant"
    }
  }
}
layer {
  name: "relu3"
  type: "ReLU"
  bottom: "hidden3"
  top: "hidden3"
}
layer {
  name: "ip"
  type: "InnerProduct"
  bottom: "hidden3"
  top: "ip"
  inner_product_param {
    num_output: 2
    weight_filler {
      type: "xavier"
    }
    bias_filler {
      type: "constant"
    }
  }
}
layer {
  name: "loss"
  type: "SoftmaxWithLoss"
  bottom: "ip"
  bottom: "label"
  top: "loss"
}
I1206 20:08:40.392874 18346 layer_factory.hpp:77] Creating layer gender
I1206 20:08:40.392892 18346 net.cpp:84] Creating Layer gender
I1206 20:08:40.392899 18346 net.cpp:380] gender -> data
I1206 20:08:40.392912 18346 net.cpp:380] gender -> label
I1206 20:08:40.392926 18346 image_data_layer.cpp:38] Opening file /home/glebg/dev/deep-learning/train.lst
I1206 20:08:40.407496 18346 image_data_layer.cpp:63] A total of 47000 images.
I1206 20:08:40.485869 18346 image_data_layer.cpp:90] output data size: 100,3,150,150
I1206 20:08:40.520794 18346 net.cpp:122] Setting up gender
I1206 20:08:40.520812 18346 net.cpp:129] Top shape: 100 3 150 150 (6750000)
I1206 20:08:40.520841 18346 net.cpp:129] Top shape: 100 (100)
I1206 20:08:40.520843 18346 net.cpp:137] Memory required for data: 27000400
I1206 20:08:40.520849 18346 layer_factory.hpp:77] Creating layer hidden1
I1206 20:08:40.520874 18346 net.cpp:84] Creating Layer hidden1
I1206 20:08:40.520879 18346 net.cpp:406] hidden1 <- data
I1206 20:08:40.520887 18346 net.cpp:380] hidden1 -> hidden1
I1206 20:08:40.910225 18346 net.cpp:122] Setting up hidden1
I1206 20:08:40.910267 18346 net.cpp:129] Top shape: 100 1000 (100000)
I1206 20:08:40.910287 18346 net.cpp:137] Memory required for data: 27400400
I1206 20:08:40.910305 18346 layer_factory.hpp:77] Creating layer relu1
I1206 20:08:40.910315 18346 net.cpp:84] Creating Layer relu1
I1206 20:08:40.910317 18346 net.cpp:406] relu1 <- hidden1
I1206 20:08:40.910365 18346 net.cpp:367] relu1 -> hidden1 (in-place)
I1206 20:08:40.910382 18346 net.cpp:122] Setting up relu1
I1206 20:08:40.910387 18346 net.cpp:129] Top shape: 100 1000 (100000)
I1206 20:08:40.910388 18346 net.cpp:137] Memory required for data: 27800400
I1206 20:08:40.910390 18346 layer_factory.hpp:77] Creating layer hidden2
I1206 20:08:40.910396 18346 net.cpp:84] Creating Layer hidden2
I1206 20:08:40.910398 18346 net.cpp:406] hidden2 <- hidden1
I1206 20:08:40.910401 18346 net.cpp:380] hidden2 -> hidden2
I1206 20:08:40.914659 18346 net.cpp:122] Setting up hidden2
I1206 20:08:40.914695 18346 net.cpp:129] Top shape: 100 750 (75000)
I1206 20:08:40.914696 18346 net.cpp:137] Memory required for data: 28100400
I1206 20:08:40.914706 18346 layer_factory.hpp:77] Creating layer relu2
I1206 20:08:40.914731 18346 net.cpp:84] Creating Layer relu2
I1206 20:08:40.914733 18346 net.cpp:406] relu2 <- hidden2
I1206 20:08:40.914737 18346 net.cpp:367] relu2 -> hidden2 (in-place)
I1206 20:08:40.914750 18346 net.cpp:122] Setting up relu2
I1206 20:08:40.914753 18346 net.cpp:129] Top shape: 100 750 (75000)
I1206 20:08:40.914755 18346 net.cpp:137] Memory required for data: 28400400
I1206 20:08:40.914757 18346 layer_factory.hpp:77] Creating layer hidden3
I1206 20:08:40.914762 18346 net.cpp:84] Creating Layer hidden3
I1206 20:08:40.914762 18346 net.cpp:406] hidden3 <- hidden2
I1206 20:08:40.914767 18346 net.cpp:380] hidden3 -> hidden3
I1206 20:08:40.916472 18346 net.cpp:122] Setting up hidden3
I1206 20:08:40.916504 18346 net.cpp:129] Top shape: 100 250 (25000)
I1206 20:08:40.916507 18346 net.cpp:137] Memory required for data: 28500400
I1206 20:08:40.916518 18346 layer_factory.hpp:77] Creating layer relu3
I1206 20:08:40.916540 18346 net.cpp:84] Creating Layer relu3
I1206 20:08:40.916543 18346 net.cpp:406] relu3 <- hidden3
I1206 20:08:40.916546 18346 net.cpp:367] relu3 -> hidden3 (in-place)
I1206 20:08:40.916553 18346 net.cpp:122] Setting up relu3
I1206 20:08:40.916555 18346 net.cpp:129] Top shape: 100 250 (25000)
I1206 20:08:40.916558 18346 net.cpp:137] Memory required for data: 28600400
I1206 20:08:40.916559 18346 layer_factory.hpp:77] Creating layer ip
I1206 20:08:40.916563 18346 net.cpp:84] Creating Layer ip
I1206 20:08:40.916565 18346 net.cpp:406] ip <- hidden3
I1206 20:08:40.916569 18346 net.cpp:380] ip -> ip
I1206 20:08:40.916641 18346 net.cpp:122] Setting up ip
I1206 20:08:40.916662 18346 net.cpp:129] Top shape: 100 2 (200)
I1206 20:08:40.916671 18346 net.cpp:137] Memory required for data: 28601200
I1206 20:08:40.916682 18346 layer_factory.hpp:77] Creating layer loss
I1206 20:08:40.916699 18346 net.cpp:84] Creating Layer loss
I1206 20:08:40.916708 18346 net.cpp:406] loss <- ip
I1206 20:08:40.916718 18346 net.cpp:406] loss <- label
I1206 20:08:40.916728 18346 net.cpp:380] loss -> loss
I1206 20:08:40.916754 18346 layer_factory.hpp:77] Creating layer loss
…
I1206 20:08:40.917057 18346 solver.cpp:172] Creating test net (#0) specified by net file: /home/glebg/dev/deep-learning/lab1/exp_3_relu_relu_relu/gender_fcn.prototxt
I1206 20:08:40.917104 18346 net.cpp:294] The NetState phase (1) differed from the phase (0) specified by a rule in layer gender
I1206 20:08:40.917160 18346 net.cpp:51] Initializing net from parameters: 
name: "SimpleFCN"
state {
  phase: TEST
}
layer {
  name: "dataset_name"
  type: "ImageData"
  top: "data"
  top: "label"
  include {
    phase: TEST
  }
  transform_param {
    scale: 0.00390625
  }
  image_data_param {
    source: "/home/glebg/dev/deep-learning/test.lst"
    batch_size: 100
    new_height: 150
    new_width: 150
  }
}
layer {
  name: "hidden1"
  type: "InnerProduct"
  bottom: "data"
  top: "hidden1"
  inner_product_param {
    num_output: 1000
    weight_filler {
      type: "xavier"
    }
    bias_filler {
      type: "constant"
    }
  }
}
layer {
  name: "relu1"
  type: "ReLU"
  bottom: "hidden1"
  top: "hidden1"
}
layer {
  name: "hidden2"
  type: "InnerProduct"
  bottom: "hidden1"
  top: "hidden2"
  inner_product_param {
    num_output: 750
    weight_filler {
      type: "xavier"
    }
    bias_filler {
      type: "constant"
    }
  }
}
layer {
  name: "relu2"
  type: "ReLU"
  bottom: "hidden2"
  top: "hidden2"
}
layer {
  name: "hidden3"
  type: "InnerProduct"
  bottom: "hidden2"
  top: "hidden3"
  inner_product_param {
    num_output: 250
    weight_filler {
      type: "xavier"
    }
    bias_filler {
      type: "constant"
    }
  }
}
layer {
  name: "relu3"
  type: "ReLU"
  bottom: "hidden3"
  top: "hidden3"
}
layer {
  name: "ip"
  type: "InnerProduct"
  bottom: "hidden3"
  top: "ip"
  inner_product_param {
    num_output: 2
    weight_filler {
      type: "xavier"
    }
    bias_filler {
      type: "constant"
    }
  }
}
layer {
  name: "loss"
  type: "SoftmaxWithLoss"
  bottom: "ip"
  bottom: "label"
  top: "loss"
}
layer {
  name: "accuracy"
  type: "Accuracy"
  bottom: "ip"
  bottom: "label"
  top: "accuracy"
  include {
    phase: TEST
  }
}
I1206 20:08:40.917284 18346 layer_factory.hpp:77] Creating layer dataset_name
I1206 20:08:40.917300 18346 net.cpp:84] Creating Layer dataset_name
I1206 20:08:40.917310 18346 net.cpp:380] dataset_name -> data
I1206 20:08:40.917322 18346 net.cpp:380] dataset_name -> label
I1206 20:08:40.917335 18346 image_data_layer.cpp:38] Opening file /home/glebg/dev/deep-learning/test.lst
I1206 20:08:40.920717 18346 image_data_layer.cpp:63] A total of 12000 images.
I1206 20:08:40.921093 18346 image_data_layer.cpp:90] output data size: 100,3,150,150
I1206 20:08:40.959535 18346 net.cpp:122] Setting up dataset_name
I1206 20:08:40.959602 18346 net.cpp:129] Top shape: 100 3 150 150 (6750000)
I1206 20:08:40.959614 18346 net.cpp:129] Top shape: 100 (100)
I1206 20:08:40.959623 18346 net.cpp:137] Memory required for data: 27000400
I1206 20:08:40.959633 18346 layer_factory.hpp:77] Creating layer label_dataset_name_1_split
I1206 20:08:40.959656 18346 net.cpp:84] Creating Layer label_dataset_name_1_split
I1206 20:08:40.959666 18346 net.cpp:406] label_dataset_name_1_split <- label
I1206 20:08:40.959677 18346 net.cpp:380] label_dataset_name_1_split -> label_dataset_name_1_split_0
I1206 20:08:40.959692 18346 net.cpp:380] label_dataset_name_1_split -> label_dataset_name_1_split_1
I1206 20:08:40.960217 18346 net.cpp:122] Setting up label_dataset_name_1_split
I1206 20:08:40.960242 18346 net.cpp:129] Top shape: 100 (100)
I1206 20:08:40.960252 18346 net.cpp:129] Top shape: 100 (100)
I1206 20:08:40.960259 18346 net.cpp:137] Memory required for data: 27001200
I1206 20:08:40.960268 18346 layer_factory.hpp:77] Creating layer hidden1
I1206 20:08:40.960283 18346 net.cpp:84] Creating Layer hidden1
I1206 20:08:40.960291 18346 net.cpp:406] hidden1 <- data
I1206 20:08:40.960302 18346 net.cpp:380] hidden1 -> hidden1
I1206 20:08:41.277561 18346 net.cpp:122] Setting up hidden1
I1206 20:08:41.277593 18346 net.cpp:129] Top shape: 100 1000 (100000)
I1206 20:08:41.277596 18346 net.cpp:137] Memory required for data: 27401200
I1206 20:08:41.277606 18346 layer_factory.hpp:77] Creating layer relu1
I1206 20:08:41.277627 18346 net.cpp:84] Creating Layer relu1
I1206 20:08:41.277673 18346 net.cpp:406] relu1 <- hidden1
I1206 20:08:41.277678 18346 net.cpp:367] relu1 -> hidden1 (in-place)
I1206 20:08:41.277684 18346 net.cpp:122] Setting up relu1
I1206 20:08:41.277700 18346 net.cpp:129] Top shape: 100 1000 (100000)
I1206 20:08:41.277709 18346 net.cpp:137] Memory required for data: 27801200
I1206 20:08:41.277724 18346 layer_factory.hpp:77] Creating layer hidden2
I1206 20:08:41.277737 18346 net.cpp:84] Creating Layer hidden2
I1206 20:08:41.277745 18346 net.cpp:406] hidden2 <- hidden1
I1206 20:08:41.277755 18346 net.cpp:380] hidden2 -> hidden2
I1206 20:08:41.281798 18346 net.cpp:122] Setting up hidden2
I1206 20:08:41.281831 18346 net.cpp:129] Top shape: 100 750 (75000)
I1206 20:08:41.281833 18346 net.cpp:137] Memory required for data: 28101200
I1206 20:08:41.281842 18346 layer_factory.hpp:77] Creating layer relu2
I1206 20:08:41.281849 18346 net.cpp:84] Creating Layer relu2
I1206 20:08:41.281852 18346 net.cpp:406] relu2 <- hidden2
I1206 20:08:41.281855 18346 net.cpp:367] relu2 -> hidden2 (in-place)
I1206 20:08:41.281862 18346 net.cpp:122] Setting up relu2
I1206 20:08:41.281864 18346 net.cpp:129] Top shape: 100 750 (75000)
I1206 20:08:41.281867 18346 net.cpp:137] Memory required for data: 28401200
I1206 20:08:41.281867 18346 layer_factory.hpp:77] Creating layer hidden3
I1206 20:08:41.281872 18346 net.cpp:84] Creating Layer hidden3
I1206 20:08:41.281874 18346 net.cpp:406] hidden3 <- hidden2
I1206 20:08:41.281877 18346 net.cpp:380] hidden3 -> hidden3
I1206 20:08:41.282901 18346 net.cpp:122] Setting up hidden3
I1206 20:08:41.282912 18346 net.cpp:129] Top shape: 100 250 (25000)
I1206 20:08:41.282913 18346 net.cpp:137] Memory required for data: 28501200
I1206 20:08:41.282919 18346 layer_factory.hpp:77] Creating layer relu3
I1206 20:08:41.282933 18346 net.cpp:84] Creating Layer relu3
I1206 20:08:41.282935 18346 net.cpp:406] relu3 <- hidden3
I1206 20:08:41.282939 18346 net.cpp:367] relu3 -> hidden3 (in-place)
I1206 20:08:41.282943 18346 net.cpp:122] Setting up relu3
I1206 20:08:41.282948 18346 net.cpp:129] Top shape: 100 250 (25000)
I1206 20:08:41.282949 18346 net.cpp:137] Memory required for data: 28601200
I1206 20:08:41.282951 18346 layer_factory.hpp:77] Creating layer ip
I1206 20:08:41.282956 18346 net.cpp:84] Creating Layer ip
I1206 20:08:41.282958 18346 net.cpp:406] ip <- hidden3
I1206 20:08:41.282963 18346 net.cpp:380] ip -> ip
I1206 20:08:41.283030 18346 net.cpp:122] Setting up ip
I1206 20:08:41.283033 18346 net.cpp:129] Top shape: 100 2 (200)
I1206 20:08:41.283035 18346 net.cpp:137] Memory required for data: 28602000
I1206 20:08:41.283040 18346 layer_factory.hpp:77] Creating layer ip_ip_0_split
I1206 20:08:41.283043 18346 net.cpp:84] Creating Layer ip_ip_0_split
I1206 20:08:41.283046 18346 net.cpp:406] ip_ip_0_split <- ip
I1206 20:08:41.283049 18346 net.cpp:380] ip_ip_0_split -> ip_ip_0_split_0
I1206 20:08:41.283054 18346 net.cpp:380] ip_ip_0_split -> ip_ip_0_split_1
I1206 20:08:41.283077 18346 net.cpp:122] Setting up ip_ip_0_split
I1206 20:08:41.283080 18346 net.cpp:129] Top shape: 100 2 (200)
I1206 20:08:41.283083 18346 net.cpp:129] Top shape: 100 2 (200)
I1206 20:08:41.283084 18346 net.cpp:137] Memory required for data: 28603600
I1206 20:08:41.283087 18346 layer_factory.hpp:77] Creating layer loss
I1206 20:08:41.283090 18346 net.cpp:84] Creating Layer loss
I1206 20:08:41.283092 18346 net.cpp:406] loss <- ip_ip_0_split_0
I1206 20:08:41.283095 18346 net.cpp:406] loss <- label_dataset_name_1_split_0
I1206 20:08:41.283098 18346 net.cpp:380] loss -> loss
…
