…
I1211 18:17:09.522429 27241 net.cpp:294] The NetState phase (0) differed from the phase (1) specified by a rule in layer accuracy
I1211 18:17:09.522653 27241 net.cpp:51] Initializing net from parameters: 
name: "FaceNetCCN"
state {
  phase: TRAIN
  level: 0
  stage: ""
}
layer {
  name: "gender"
  type: "ImageData"
  top: "data"
  top: "label"
  include {
    phase: TRAIN
  }
  transform_param {
    scale: 0.00390625
  }
  image_data_param {
    source: "../../train.lst"
    batch_size: 1
    new_height: 150
    new_width: 150
    is_color: true
    root_folder: "../../data/"
  }
}
layer {
  name: "conv1"
  type: "Convolution"
  bottom: "data"
  top: "conv1"
  param {
    lr_mult: 1
    decay_mult: 1
  }
  param {
    lr_mult: 2
    decay_mult: 0
  }
  convolution_param {
    num_output: 40
    kernel_size: 3
    stride: 1
    weight_filler {
      type: "gaussian"
      std: 0.01
    }
  }
}
layer {
  name: "pool1"
  type: "Pooling"
  bottom: "conv1"
  top: "pool1"
  pooling_param {
    pool: MAX
    kernel_size: 3
    stride: 1
  }
}
layer {
  name: "relu1"
  type: "ReLU"
  bottom: "pool1"
  top: "pool1"
}
layer {
  name: "conv2"
  type: "Convolution"
  bottom: "pool1"
  top: "conv2"
  param {
    lr_mult: 1
    decay_mult: 1
  }
  param {
    lr_mult: 2
    decay_mult: 0
  }
  convolution_param {
    num_output: 64
    kernel_size: 3
    stride: 1
    weight_filler {
      type: "xavier"
      std: 0.01
    }
    bias_filler {
      type: "constant"
      value: 0.1
    }
  }
}
layer {
  name: "pool2"
  type: "Pooling"
  bottom: "conv2"
  top: "pool2"
  pooling_param {
    pool: MAX
    kernel_size: 3
    stride: 2
  }
}
layer {
  name: "relu2"
  type: "ReLU"
  bottom: "pool2"
  top: "pool2"
}
layer {
  name: "conv3"
  type: "Convolution"
  bottom: "pool2"
  top: "conv3"
  param {
    lr_mult: 1
    decay_mult: 1
  }
  param {
    lr_mult: 2
    decay_mult: 0
  }
  convolution_param {
    num_output: 128
    kernel_size: 3
    weight_filler {
      type: "xavier"
      std: 0.01
    }
    bias_filler {
      type: "constant"
      value: 0.1
    }
  }
}
layer {
  name: "pool3"
  type: "Pooling"
  bottom: "conv3"
  top: "pool3"
  pooling_param {
    pool: MAX
    kernel_size: 3
    stride: 1
  }
}
layer {
  name: "relu3"
  type: "ReLU"
  bottom: "pool3"
  top: "pool3"
}
layer {
  name: "conv4"
  type: "Convolution"
  bottom: "pool3"
  top: "conv4"
  param {
    lr_mult: 1
    decay_mult: 1
  }
  param {
    lr_mult: 2
    decay_mult: 0
  }
  convolution_param {
    num_output: 256
    kernel_size: 3
    weight_filler {
      type: "xavier"
      std: 0.01
    }
    bias_filler {
      type: "constant"
      value: 0.1
    }
  }
}
layer {
  name: "pool4"
  type: "Pooling"
  bottom: "conv4"
  top: "pool4"
  pooling_param {
    pool: MAX
    kernel_size: 3
    stride: 2
  }
}
layer {
  name: "relu4"
  type: "ReLU"
  bottom: "pool4"
  top: "pool4"
}
layer {
  name: "conv5"
  type: "Convolution"
  bottom: "pool4"
  top: "conv5"
  param {
    lr_mult: 1
    decay_mult: 1
  }
  param {
    lr_mult: 2
    decay_mult: 0
  }
  convolution_param {
    num_output: 512
    kernel_size: 3
    weight_filler {
      type: "xavier"
      std: 0.01
    }
    bias_filler {
      type: "constant"
      value: 0.1
    }
  }
}
layer {
  name: "pool5"
  type: "Pooling"
  bottom: "conv5"
  top: "pool5"
  pooling_param {
    pool: MAX
    kernel_size: 3
    stride: 2
  }
}
layer {
  name: "relu5"
  type: "ReLU"
  bottom: "pool5"
  top: "pool5"
}
layer {
  name: "fc1_g"
  type: "InnerProduct"
  bottom: "pool5"
  top: "fc1_g"
  param {
    lr_mult: 1
    decay_mult: 1
  }
  param {
    lr_mult: 2
    decay_mult: 0
  }
  inner_product_param {
    num_output: 1024
    weight_filler {
      type: "gaussian"
      std: 0.01
    }
    bias_filler {
      type: "constant"
      value: 0
    }
  }
}
layer {
  name: "relu5_g"
  type: "ReLU"
  bottom: "fc1_g"
  top: "fc1_g"
}
layer {
  name: "fc2_g"
  type: "InnerProduct"
  bottom: "fc1_g"
  top: "fc2_g"
  param {
    lr_mult: 1
    decay_mult: 1
  }
  param {
    lr_mult: 2
    decay_mult: 0
  }
  inner_product_param {
    num_output: 1024
    weight_filler {
      type: "gaussian"
      std: 0.01
    }
    bias_filler {
      type: "constant"
      value: 0
    }
  }
}
layer {
  name: "relu6_g"
  type: "ReLU"
  bottom: "fc2_g"
  top: "fc2_g"
}
layer {
  name: "fc3_g"
  type: "InnerProduct"
  bottom: "fc2_g"
  top: "fc3_g"
  param {
    lr_mult: 1
    decay_mult: 1
  }
  param {
    lr_mult: 2
    decay_mult: 0
  }
  inner_product_param {
    num_output: 2
    weight_filler {
      type: "xavier"
    }
    bias_filler {
      type: "constant"
      value: 0
    }
  }
}
layer {
  name: "loss"
  type: "SoftmaxWithLoss"
  bottom: "fc3_g"
  bottom: "label"
  top: "loss"
}
I1211 18:17:09.522876 27241 layer_factory.hpp:77] Creating layer gender
I1211 18:17:09.522992 27241 net.cpp:84] Creating Layer gender
I1211 18:17:09.523042 27241 net.cpp:380] gender -> data
I1211 18:17:09.523120 27241 net.cpp:380] gender -> label
I1211 18:17:09.523206 27241 image_data_layer.cpp:38] Opening file ../../train.lst
I1211 18:17:09.540055 27241 image_data_layer.cpp:63] A total of 47000 images.
I1211 18:17:10.892683 27241 image_data_layer.cpp:90] output data size: 1,3,150,150
I1211 18:17:10.896270 27241 net.cpp:122] Setting up gender
I1211 18:17:10.896335 27241 net.cpp:129] Top shape: 1 3 150 150 (67500)
I1211 18:17:10.896387 27241 net.cpp:129] Top shape: 1 (1)
I1211 18:17:10.896411 27241 net.cpp:137] Memory required for data: 270004
I1211 18:17:10.896453 27241 layer_factory.hpp:77] Creating layer conv1
I1211 18:17:10.896566 27241 net.cpp:84] Creating Layer conv1
I1211 18:17:10.896596 27241 net.cpp:406] conv1 <- data
I1211 18:17:10.896632 27241 net.cpp:380] conv1 -> conv1
I1211 18:17:10.898643 27241 net.cpp:122] Setting up conv1
I1211 18:17:10.898684 27241 net.cpp:129] Top shape: 1 40 148 148 (876160)
I1211 18:17:10.898706 27241 net.cpp:137] Memory required for data: 3774644
I1211 18:17:10.898761 27241 layer_factory.hpp:77] Creating layer pool1
I1211 18:17:10.898859 27241 net.cpp:84] Creating Layer pool1
I1211 18:17:10.898886 27241 net.cpp:406] pool1 <- conv1
I1211 18:17:10.898910 27241 net.cpp:380] pool1 -> pool1
I1211 18:17:10.898989 27241 net.cpp:122] Setting up pool1
I1211 18:17:10.899020 27241 net.cpp:129] Top shape: 1 40 146 146 (852640)
I1211 18:17:10.899041 27241 net.cpp:137] Memory required for data: 7185204
I1211 18:17:10.899061 27241 layer_factory.hpp:77] Creating layer relu1
I1211 18:17:10.899093 27241 net.cpp:84] Creating Layer relu1
I1211 18:17:10.899117 27241 net.cpp:406] relu1 <- pool1
I1211 18:17:10.899140 27241 net.cpp:367] relu1 -> pool1 (in-place)
I1211 18:17:10.899175 27241 net.cpp:122] Setting up relu1
I1211 18:17:10.899199 27241 net.cpp:129] Top shape: 1 40 146 146 (852640)
I1211 18:17:10.899219 27241 net.cpp:137] Memory required for data: 10595764
I1211 18:17:10.899237 27241 layer_factory.hpp:77] Creating layer conv2
I1211 18:17:10.899263 27241 net.cpp:84] Creating Layer conv2
I1211 18:17:10.899286 27241 net.cpp:406] conv2 <- pool1
I1211 18:17:10.899308 27241 net.cpp:380] conv2 -> conv2
I1211 18:17:10.900063 27241 net.cpp:122] Setting up conv2
I1211 18:17:10.900105 27241 net.cpp:129] Top shape: 1 64 144 144 (1327104)
I1211 18:17:10.900130 27241 net.cpp:137] Memory required for data: 15904180
I1211 18:17:10.900159 27241 layer_factory.hpp:77] Creating layer pool2
I1211 18:17:10.900188 27241 net.cpp:84] Creating Layer pool2
I1211 18:17:10.900246 27241 net.cpp:406] pool2 <- conv2
I1211 18:17:10.900281 27241 net.cpp:380] pool2 -> pool2
I1211 18:17:10.900336 27241 net.cpp:122] Setting up pool2
I1211 18:17:10.900365 27241 net.cpp:129] Top shape: 1 64 72 72 (331776)
I1211 18:17:10.900387 27241 net.cpp:137] Memory required for data: 17231284
I1211 18:17:10.900405 27241 layer_factory.hpp:77] Creating layer relu2
I1211 18:17:10.900427 27241 net.cpp:84] Creating Layer relu2
I1211 18:17:10.900449 27241 net.cpp:406] relu2 <- pool2
I1211 18:17:10.900470 27241 net.cpp:367] relu2 -> pool2 (in-place)
I1211 18:17:10.900493 27241 net.cpp:122] Setting up relu2
I1211 18:17:10.900516 27241 net.cpp:129] Top shape: 1 64 72 72 (331776)
I1211 18:17:10.900535 27241 net.cpp:137] Memory required for data: 18558388
I1211 18:17:10.900557 27241 layer_factory.hpp:77] Creating layer conv3
I1211 18:17:10.900583 27241 net.cpp:84] Creating Layer conv3
I1211 18:17:10.900604 27241 net.cpp:406] conv3 <- pool2
I1211 18:17:10.900626 27241 net.cpp:380] conv3 -> conv3
I1211 18:17:10.902021 27241 net.cpp:122] Setting up conv3
I1211 18:17:10.902061 27241 net.cpp:129] Top shape: 1 128 70 70 (627200)
I1211 18:17:10.902084 27241 net.cpp:137] Memory required for data: 21067188
I1211 18:17:10.902112 27241 layer_factory.hpp:77] Creating layer pool3
I1211 18:17:10.902137 27241 net.cpp:84] Creating Layer pool3
I1211 18:17:10.902158 27241 net.cpp:406] pool3 <- conv3
I1211 18:17:10.902181 27241 net.cpp:380] pool3 -> pool3
I1211 18:17:10.902235 27241 net.cpp:122] Setting up pool3
I1211 18:17:10.902263 27241 net.cpp:129] Top shape: 1 128 68 68 (591872)
I1211 18:17:10.902284 27241 net.cpp:137] Memory required for data: 23434676
I1211 18:17:10.902304 27241 layer_factory.hpp:77] Creating layer relu3
I1211 18:17:10.902326 27241 net.cpp:84] Creating Layer relu3
I1211 18:17:10.902346 27241 net.cpp:406] relu3 <- pool3
I1211 18:17:10.902369 27241 net.cpp:367] relu3 -> pool3 (in-place)
I1211 18:17:10.902391 27241 net.cpp:122] Setting up relu3
I1211 18:17:10.902415 27241 net.cpp:129] Top shape: 1 128 68 68 (591872)
I1211 18:17:10.902434 27241 net.cpp:137] Memory required for data: 25802164
I1211 18:17:10.902454 27241 layer_factory.hpp:77] Creating layer conv4
I1211 18:17:10.902482 27241 net.cpp:84] Creating Layer conv4
I1211 18:17:10.902503 27241 net.cpp:406] conv4 <- pool3
I1211 18:17:10.902528 27241 net.cpp:380] conv4 -> conv4
I1211 18:17:10.905526 27241 net.cpp:122] Setting up conv4
I1211 18:17:10.905567 27241 net.cpp:129] Top shape: 1 256 66 66 (1115136)
I1211 18:17:10.905591 27241 net.cpp:137] Memory required for data: 30262708
I1211 18:17:10.905616 27241 layer_factory.hpp:77] Creating layer pool4
I1211 18:17:10.905639 27241 net.cpp:84] Creating Layer pool4
I1211 18:17:10.905660 27241 net.cpp:406] pool4 <- conv4
I1211 18:17:10.905683 27241 net.cpp:380] pool4 -> pool4
I1211 18:17:10.905735 27241 net.cpp:122] Setting up pool4
I1211 18:17:10.905764 27241 net.cpp:129] Top shape: 1 256 33 33 (278784)
I1211 18:17:10.905784 27241 net.cpp:137] Memory required for data: 31377844
I1211 18:17:10.905804 27241 layer_factory.hpp:77] Creating layer relu4
I1211 18:17:10.905840 27241 net.cpp:84] Creating Layer relu4
I1211 18:17:10.905865 27241 net.cpp:406] relu4 <- pool4
I1211 18:17:10.905887 27241 net.cpp:367] relu4 -> pool4 (in-place)
I1211 18:17:10.905911 27241 net.cpp:122] Setting up relu4
I1211 18:17:10.905936 27241 net.cpp:129] Top shape: 1 256 33 33 (278784)
I1211 18:17:10.905956 27241 net.cpp:137] Memory required for data: 32492980
I1211 18:17:10.905977 27241 layer_factory.hpp:77] Creating layer conv5
I1211 18:17:10.906018 27241 net.cpp:84] Creating Layer conv5
I1211 18:17:10.906042 27241 net.cpp:406] conv5 <- pool4
I1211 18:17:10.906081 27241 net.cpp:380] conv5 -> conv5
I1211 18:17:10.918347 27241 net.cpp:122] Setting up conv5
I1211 18:17:10.918400 27241 net.cpp:129] Top shape: 1 512 31 31 (492032)
I1211 18:17:10.918422 27241 net.cpp:137] Memory required for data: 34461108
I1211 18:17:10.918449 27241 layer_factory.hpp:77] Creating layer pool5
I1211 18:17:10.918498 27241 net.cpp:84] Creating Layer pool5
I1211 18:17:10.918534 27241 net.cpp:406] pool5 <- conv5
I1211 18:17:10.918567 27241 net.cpp:380] pool5 -> pool5
I1211 18:17:10.918632 27241 net.cpp:122] Setting up pool5
I1211 18:17:10.918663 27241 net.cpp:129] Top shape: 1 512 15 15 (115200)
I1211 18:17:10.918684 27241 net.cpp:137] Memory required for data: 34921908
I1211 18:17:10.918704 27241 layer_factory.hpp:77] Creating layer relu5
I1211 18:17:10.918725 27241 net.cpp:84] Creating Layer relu5
I1211 18:17:10.918745 27241 net.cpp:406] relu5 <- pool5
I1211 18:17:10.918767 27241 net.cpp:367] relu5 -> pool5 (in-place)
I1211 18:17:10.918790 27241 net.cpp:122] Setting up relu5
I1211 18:17:10.918813 27241 net.cpp:129] Top shape: 1 512 15 15 (115200)
I1211 18:17:10.918841 27241 net.cpp:137] Memory required for data: 35382708
I1211 18:17:10.918861 27241 layer_factory.hpp:77] Creating layer fc1_g
I1211 18:17:10.918912 27241 net.cpp:84] Creating Layer fc1_g
I1211 18:17:10.918936 27241 net.cpp:406] fc1_g <- pool5
I1211 18:17:10.918961 27241 net.cpp:380] fc1_g -> fc1_g
I1211 18:17:12.690963 27241 net.cpp:122] Setting up fc1_g
I1211 18:17:12.691121 27241 net.cpp:129] Top shape: 1 1024 (1024)
I1211 18:17:12.691148 27241 net.cpp:137] Memory required for data: 35386804
I1211 18:17:12.691176 27241 layer_factory.hpp:77] Creating layer relu5_g
I1211 18:17:12.691205 27241 net.cpp:84] Creating Layer relu5_g
I1211 18:17:12.691227 27241 net.cpp:406] relu5_g <- fc1_g
I1211 18:17:12.691252 27241 net.cpp:367] relu5_g -> fc1_g (in-place)
I1211 18:17:12.691280 27241 net.cpp:122] Setting up relu5_g
I1211 18:17:12.691303 27241 net.cpp:129] Top shape: 1 1024 (1024)
I1211 18:17:12.691323 27241 net.cpp:137] Memory required for data: 35390900
I1211 18:17:12.691342 27241 layer_factory.hpp:77] Creating layer fc2_g
I1211 18:17:12.691367 27241 net.cpp:84] Creating Layer fc2_g
I1211 18:17:12.691388 27241 net.cpp:406] fc2_g <- fc1_g
I1211 18:17:12.691411 27241 net.cpp:380] fc2_g -> fc2_g
I1211 18:17:12.707288 27241 net.cpp:122] Setting up fc2_g
I1211 18:17:12.707329 27241 net.cpp:129] Top shape: 1 1024 (1024)
I1211 18:17:12.707350 27241 net.cpp:137] Memory required for data: 35394996
I1211 18:17:12.707376 27241 layer_factory.hpp:77] Creating layer relu6_g
I1211 18:17:12.707402 27241 net.cpp:84] Creating Layer relu6_g
I1211 18:17:12.707424 27241 net.cpp:406] relu6_g <- fc2_g
I1211 18:17:12.707448 27241 net.cpp:367] relu6_g -> fc2_g (in-place)
I1211 18:17:12.707471 27241 net.cpp:122] Setting up relu6_g
I1211 18:17:12.707494 27241 net.cpp:129] Top shape: 1 1024 (1024)
I1211 18:17:12.707514 27241 net.cpp:137] Memory required for data: 35399092
I1211 18:17:12.707532 27241 layer_factory.hpp:77] Creating layer fc3_g
I1211 18:17:12.707556 27241 net.cpp:84] Creating Layer fc3_g
I1211 18:17:12.707577 27241 net.cpp:406] fc3_g <- fc2_g
I1211 18:17:12.707600 27241 net.cpp:380] fc3_g -> fc3_g
I1211 18:17:12.707728 27241 net.cpp:122] Setting up fc3_g
I1211 18:17:12.707758 27241 net.cpp:129] Top shape: 1 2 (2)
I1211 18:17:12.707779 27241 net.cpp:137] Memory required for data: 35399100
I1211 18:17:12.707803 27241 layer_factory.hpp:77] Creating layer loss
I1211 18:17:12.728901 27241 net.cpp:84] Creating Layer loss
I1211 18:17:12.728991 27241 net.cpp:406] loss <- fc3_g
I1211 18:17:12.729051 27241 net.cpp:406] loss <- label
I1211 18:17:12.729111 27241 net.cpp:380] loss -> loss
I1211 18:17:12.792754 27241 layer_factory.hpp:77] Creating layer loss
…
I1211 18:17:12.822105 27241 net.cpp:294] The NetState phase (1) differed from the phase (0) specified by a rule in layer gender
I1211 18:17:12.822574 27241 net.cpp:51] Initializing net from parameters: 
name: "FaceNetCCN"
state {
  phase: TEST
}
layer {
  name: "gender"
  type: "ImageData"
  top: "data"
  top: "label"
  include {
    phase: TEST
  }
  transform_param {
    scale: 0.00390625
  }
  image_data_param {
    source: "../../test.lst"
    batch_size: 1
    new_height: 150
    new_width: 150
    is_color: true
    root_folder: "../../data/"
  }
}
layer {
  name: "conv1"
  type: "Convolution"
  bottom: "data"
  top: "conv1"
  param {
    lr_mult: 1
    decay_mult: 1
  }
  param {
    lr_mult: 2
    decay_mult: 0
  }
  convolution_param {
    num_output: 40
    kernel_size: 3
    stride: 1
    weight_filler {
      type: "gaussian"
      std: 0.01
    }
  }
}
layer {
  name: "pool1"
  type: "Pooling"
  bottom: "conv1"
  top: "pool1"
  pooling_param {
    pool: MAX
    kernel_size: 3
    stride: 1
  }
}
layer {
  name: "relu1"
  type: "ReLU"
  bottom: "pool1"
  top: "pool1"
}
layer {
  name: "conv2"
  type: "Convolution"
  bottom: "pool1"
  top: "conv2"
  param {
    lr_mult: 1
    decay_mult: 1
  }
  param {
    lr_mult: 2
    decay_mult: 0
  }
  convolution_param {
    num_output: 64
    kernel_size: 3
    stride: 1
    weight_filler {
      type: "xavier"
      std: 0.01
    }
    bias_filler {
      type: "constant"
      value: 0.1
    }
  }
}
layer {
  name: "pool2"
  type: "Pooling"
  bottom: "conv2"
  top: "pool2"
  pooling_param {
    pool: MAX
    kernel_size: 3
    stride: 2
  }
}
layer {
  name: "relu2"
  type: "ReLU"
  bottom: "pool2"
  top: "pool2"
}
layer {
  name: "conv3"
  type: "Convolution"
  bottom: "pool2"
  top: "conv3"
  param {
    lr_mult: 1
    decay_mult: 1
  }
  param {
    lr_mult: 2
    decay_mult: 0
  }
  convolution_param {
    num_output: 128
    kernel_size: 3
    weight_filler {
      type: "xavier"
      std: 0.01
    }
    bias_filler {
      type: "constant"
      value: 0.1
    }
  }
}
layer {
  name: "pool3"
  type: "Pooling"
  bottom: "conv3"
  top: "pool3"
  pooling_param {
    pool: MAX
    kernel_size: 3
    stride: 1
  }
}
layer {
  name: "relu3"
  type: "ReLU"
  bottom: "pool3"
  top: "pool3"
}
layer {
  name: "conv4"
  type: "Convolution"
  bottom: "pool3"
  top: "conv4"
  param {
    lr_mult: 1
    decay_mult: 1
  }
  param {
    lr_mult: 2
    decay_mult: 0
  }
  convolution_param {
    num_output: 256
    kernel_size: 3
    weight_filler {
      type: "xavier"
      std: 0.01
    }
    bias_filler {
      type: "constant"
      value: 0.1
    }
  }
}
layer {
  name: "pool4"
  type: "Pooling"
  bottom: "conv4"
  top: "pool4"
  pooling_param {
    pool: MAX
    kernel_size: 3
    stride: 2
  }
}
layer {
  name: "relu4"
  type: "ReLU"
  bottom: "pool4"
  top: "pool4"
}
layer {
  name: "conv5"
  type: "Convolution"
  bottom: "pool4"
  top: "conv5"
  param {
    lr_mult: 1
    decay_mult: 1
  }
  param {
    lr_mult: 2
    decay_mult: 0
  }
  convolution_param {
    num_output: 512
    kernel_size: 3
    weight_filler {
      type: "xavier"
      std: 0.01
    }
    bias_filler {
      type: "constant"
      value: 0.1
    }
  }
}
layer {
  name: "pool5"
  type: "Pooling"
  bottom: "conv5"
  top: "pool5"
  pooling_param {
    pool: MAX
    kernel_size: 3
    stride: 2
  }
}
layer {
  name: "relu5"
  type: "ReLU"
  bottom: "pool5"
  top: "pool5"
}
layer {
  name: "fc1_g"
  type: "InnerProduct"
  bottom: "pool5"
  top: "fc1_g"
  param {
    lr_mult: 1
    decay_mult: 1
  }
  param {
    lr_mult: 2
    decay_mult: 0
  }
  inner_product_param {
    num_output: 1024
    weight_filler {
      type: "gaussian"
      std: 0.01
    }
    bias_filler {
      type: "constant"
      value: 0
    }
  }
}
layer {
  name: "relu5_g"
  type: "ReLU"
  bottom: "fc1_g"
  top: "fc1_g"
}
layer {
  name: "fc2_g"
  type: "InnerProduct"
  bottom: "fc1_g"
  top: "fc2_g"
  param {
    lr_mult: 1
    decay_mult: 1
  }
  param {
    lr_mult: 2
    decay_mult: 0
  }
  inner_product_param {
    num_output: 1024
    weight_filler {
      type: "gaussian"
      std: 0.01
    }
    bias_filler {
      type: "constant"
      value: 0
    }
  }
}
layer {
  name: "relu6_g"
  type: "ReLU"
  bottom: "fc2_g"
  top: "fc2_g"
}
layer {
  name: "fc3_g"
  type: "InnerProduct"
  bottom: "fc2_g"
  top: "fc3_g"
  param {
    lr_mult: 1
    decay_mult: 1
  }
  param {
    lr_mult: 2
    decay_mult: 0
  }
  inner_product_param {
    num_output: 2
    weight_filler {
      type: "xavier"
    }
    bias_filler {
      type: "constant"
      value: 0
    }
  }
}
layer {
  name: "loss"
  type: "SoftmaxWithLoss"
  bottom: "fc3_g"
  bottom: "label"
  top: "loss"
}
layer {
  name: "accuracy"
  type: "Accuracy"
  bottom: "fc3_g"
  bottom: "label"
  top: "accuracy"
  include {
    phase: TEST
  }
}
I1211 18:17:12.834576 27241 layer_factory.hpp:77] Creating layer gender
I1211 18:17:12.834676 27241 net.cpp:84] Creating Layer gender
I1211 18:17:12.834731 27241 net.cpp:380] gender -> data
I1211 18:17:12.834789 27241 net.cpp:380] gender -> label
I1211 18:17:12.834867 27241 image_data_layer.cpp:38] Opening file ../../test.lst
I1211 18:17:13.023247 27241 image_data_layer.cpp:63] A total of 12000 images.
I1211 18:17:13.058431 27241 image_data_layer.cpp:90] output data size: 1,3,150,150
I1211 18:17:13.062373 27241 net.cpp:122] Setting up gender
I1211 18:17:13.062479 27241 net.cpp:129] Top shape: 1 3 150 150 (67500)
I1211 18:17:13.062546 27241 net.cpp:129] Top shape: 1 (1)
I1211 18:17:13.062599 27241 net.cpp:137] Memory required for data: 270004
I1211 18:17:13.062656 27241 layer_factory.hpp:77] Creating layer label_gender_1_split
I1211 18:17:13.066884 27241 net.cpp:84] Creating Layer label_gender_1_split
I1211 18:17:13.066970 27241 net.cpp:406] label_gender_1_split <- label
I1211 18:17:13.067028 27241 net.cpp:380] label_gender_1_split -> label_gender_1_split_0
I1211 18:17:13.067100 27241 net.cpp:380] label_gender_1_split -> label_gender_1_split_1
I1211 18:17:13.078074 27241 net.cpp:122] Setting up label_gender_1_split
I1211 18:17:13.078169 27241 net.cpp:129] Top shape: 1 (1)
I1211 18:17:13.078227 27241 net.cpp:129] Top shape: 1 (1)
I1211 18:17:13.078274 27241 net.cpp:137] Memory required for data: 270012
I1211 18:17:13.078320 27241 layer_factory.hpp:77] Creating layer conv1
I1211 18:17:13.078393 27241 net.cpp:84] Creating Layer conv1
I1211 18:17:13.078446 27241 net.cpp:406] conv1 <- data
I1211 18:17:13.078501 27241 net.cpp:380] conv1 -> conv1
I1211 18:17:13.079095 27241 net.cpp:122] Setting up conv1
I1211 18:17:13.079174 27241 net.cpp:129] Top shape: 1 40 148 148 (876160)
I1211 18:17:13.079223 27241 net.cpp:137] Memory required for data: 3774652
I1211 18:17:13.079325 27241 layer_factory.hpp:77] Creating layer pool1
I1211 18:17:13.079407 27241 net.cpp:84] Creating Layer pool1
I1211 18:17:13.079459 27241 net.cpp:406] pool1 <- conv1
I1211 18:17:13.079511 27241 net.cpp:380] pool1 -> pool1
I1211 18:17:13.079637 27241 net.cpp:122] Setting up pool1
I1211 18:17:13.079704 27241 net.cpp:129] Top shape: 1 40 146 146 (852640)
I1211 18:17:13.079751 27241 net.cpp:137] Memory required for data: 7185212
I1211 18:17:13.079797 27241 layer_factory.hpp:77] Creating layer relu1
I1211 18:17:13.079871 27241 net.cpp:84] Creating Layer relu1
I1211 18:17:13.079924 27241 net.cpp:406] relu1 <- pool1
I1211 18:17:13.079975 27241 net.cpp:367] relu1 -> pool1 (in-place)
I1211 18:17:13.080029 27241 net.cpp:122] Setting up relu1
I1211 18:17:13.080083 27241 net.cpp:129] Top shape: 1 40 146 146 (852640)
I1211 18:17:13.080128 27241 net.cpp:137] Memory required for data: 10595772
I1211 18:17:13.080173 27241 layer_factory.hpp:77] Creating layer conv2
I1211 18:17:13.080230 27241 net.cpp:84] Creating Layer conv2
I1211 18:17:13.080281 27241 net.cpp:406] conv2 <- pool1
I1211 18:17:13.080334 27241 net.cpp:380] conv2 -> conv2
I1211 18:17:13.081228 27241 net.cpp:122] Setting up conv2
I1211 18:17:13.081305 27241 net.cpp:129] Top shape: 1 64 144 144 (1327104)
I1211 18:17:13.081354 27241 net.cpp:137] Memory required for data: 15904188
I1211 18:17:13.081414 27241 layer_factory.hpp:77] Creating layer pool2
I1211 18:17:13.081468 27241 net.cpp:84] Creating Layer pool2
I1211 18:17:13.081517 27241 net.cpp:406] pool2 <- conv2
I1211 18:17:13.081568 27241 net.cpp:380] pool2 -> pool2
I1211 18:17:13.081686 27241 net.cpp:122] Setting up pool2
I1211 18:17:13.081753 27241 net.cpp:129] Top shape: 1 64 72 72 (331776)
I1211 18:17:13.081800 27241 net.cpp:137] Memory required for data: 17231292
I1211 18:17:13.081861 27241 layer_factory.hpp:77] Creating layer relu2
I1211 18:17:13.081919 27241 net.cpp:84] Creating Layer relu2
I1211 18:17:13.081969 27241 net.cpp:406] relu2 <- pool2
I1211 18:17:13.082017 27241 net.cpp:367] relu2 -> pool2 (in-place)
I1211 18:17:13.082072 27241 net.cpp:122] Setting up relu2
I1211 18:17:13.082125 27241 net.cpp:129] Top shape: 1 64 72 72 (331776)
I1211 18:17:13.082170 27241 net.cpp:137] Memory required for data: 18558396
I1211 18:17:13.082214 27241 layer_factory.hpp:77] Creating layer conv3
I1211 18:17:13.082271 27241 net.cpp:84] Creating Layer conv3
I1211 18:17:13.082321 27241 net.cpp:406] conv3 <- pool2
I1211 18:17:13.082373 27241 net.cpp:380] conv3 -> conv3
I1211 18:17:13.085157 27241 net.cpp:122] Setting up conv3
I1211 18:17:13.085247 27241 net.cpp:129] Top shape: 1 128 70 70 (627200)
I1211 18:17:13.085299 27241 net.cpp:137] Memory required for data: 21067196
I1211 18:17:13.085360 27241 layer_factory.hpp:77] Creating layer pool3
I1211 18:17:13.085417 27241 net.cpp:84] Creating Layer pool3
I1211 18:17:13.085465 27241 net.cpp:406] pool3 <- conv3
I1211 18:17:13.085523 27241 net.cpp:380] pool3 -> pool3
I1211 18:17:13.085655 27241 net.cpp:122] Setting up pool3
I1211 18:17:13.085722 27241 net.cpp:129] Top shape: 1 128 68 68 (591872)
I1211 18:17:13.085770 27241 net.cpp:137] Memory required for data: 23434684
I1211 18:17:13.085826 27241 layer_factory.hpp:77] Creating layer relu3
I1211 18:17:13.085882 27241 net.cpp:84] Creating Layer relu3
I1211 18:17:13.085930 27241 net.cpp:406] relu3 <- pool3
I1211 18:17:13.085986 27241 net.cpp:367] relu3 -> pool3 (in-place)
I1211 18:17:13.086045 27241 net.cpp:122] Setting up relu3
I1211 18:17:13.086098 27241 net.cpp:129] Top shape: 1 128 68 68 (591872)
I1211 18:17:13.086143 27241 net.cpp:137] Memory required for data: 25802172
I1211 18:17:13.086189 27241 layer_factory.hpp:77] Creating layer conv4
I1211 18:17:13.086248 27241 net.cpp:84] Creating Layer conv4
I1211 18:17:13.086299 27241 net.cpp:406] conv4 <- pool3
I1211 18:17:13.086354 27241 net.cpp:380] conv4 -> conv4
I1211 18:17:13.092571 27241 net.cpp:122] Setting up conv4
I1211 18:17:13.092651 27241 net.cpp:129] Top shape: 1 256 66 66 (1115136)
I1211 18:17:13.092700 27241 net.cpp:137] Memory required for data: 30262716
I1211 18:17:13.092778 27241 layer_factory.hpp:77] Creating layer pool4
I1211 18:17:13.092864 27241 net.cpp:84] Creating Layer pool4
I1211 18:17:13.092916 27241 net.cpp:406] pool4 <- conv4
I1211 18:17:13.092964 27241 net.cpp:380] pool4 -> pool4
I1211 18:17:13.093083 27241 net.cpp:122] Setting up pool4
I1211 18:17:13.093152 27241 net.cpp:129] Top shape: 1 256 33 33 (278784)
I1211 18:17:13.093197 27241 net.cpp:137] Memory required for data: 31377852
I1211 18:17:13.093240 27241 layer_factory.hpp:77] Creating layer relu4
I1211 18:17:13.093286 27241 net.cpp:84] Creating Layer relu4
I1211 18:17:13.093330 27241 net.cpp:406] relu4 <- pool4
I1211 18:17:13.093377 27241 net.cpp:367] relu4 -> pool4 (in-place)
I1211 18:17:13.093428 27241 net.cpp:122] Setting up relu4
I1211 18:17:13.093485 27241 net.cpp:129] Top shape: 1 256 33 33 (278784)
I1211 18:17:13.093531 27241 net.cpp:137] Memory required for data: 32492988
I1211 18:17:13.093577 27241 layer_factory.hpp:77] Creating layer conv5
I1211 18:17:13.093631 27241 net.cpp:84] Creating Layer conv5
I1211 18:17:13.093677 27241 net.cpp:406] conv5 <- pool4
I1211 18:17:13.093730 27241 net.cpp:380] conv5 -> conv5
I1211 18:17:13.115047 27241 net.cpp:122] Setting up conv5
I1211 18:17:13.115126 27241 net.cpp:129] Top shape: 1 512 31 31 (492032)
I1211 18:17:13.115169 27241 net.cpp:137] Memory required for data: 34461116
I1211 18:17:13.115219 27241 layer_factory.hpp:77] Creating layer pool5
I1211 18:17:13.115267 27241 net.cpp:84] Creating Layer pool5
I1211 18:17:13.115306 27241 net.cpp:406] pool5 <- conv5
I1211 18:17:13.115351 27241 net.cpp:380] pool5 -> pool5
I1211 18:17:13.115455 27241 net.cpp:122] Setting up pool5
I1211 18:17:13.115510 27241 net.cpp:129] Top shape: 1 512 15 15 (115200)
I1211 18:17:13.115550 27241 net.cpp:137] Memory required for data: 34921916
I1211 18:17:13.115586 27241 layer_factory.hpp:77] Creating layer relu5
I1211 18:17:13.115633 27241 net.cpp:84] Creating Layer relu5
I1211 18:17:13.115674 27241 net.cpp:406] relu5 <- pool5
I1211 18:17:13.115715 27241 net.cpp:367] relu5 -> pool5 (in-place)
I1211 18:17:13.115758 27241 net.cpp:122] Setting up relu5
I1211 18:17:13.115804 27241 net.cpp:129] Top shape: 1 512 15 15 (115200)
I1211 18:17:13.115854 27241 net.cpp:137] Memory required for data: 35382716
I1211 18:17:13.115891 27241 layer_factory.hpp:77] Creating layer fc1_g
I1211 18:17:13.115938 27241 net.cpp:84] Creating Layer fc1_g
I1211 18:17:13.115979 27241 net.cpp:406] fc1_g <- pool5
I1211 18:17:13.116024 27241 net.cpp:380] fc1_g -> fc1_g
I1211 18:17:14.912835 27241 net.cpp:122] Setting up fc1_g
I1211 18:17:14.912992 27241 net.cpp:129] Top shape: 1 1024 (1024)
I1211 18:17:14.913017 27241 net.cpp:137] Memory required for data: 35386812
I1211 18:17:14.913046 27241 layer_factory.hpp:77] Creating layer relu5_g
I1211 18:17:14.913075 27241 net.cpp:84] Creating Layer relu5_g
I1211 18:17:14.913099 27241 net.cpp:406] relu5_g <- fc1_g
I1211 18:17:14.913125 27241 net.cpp:367] relu5_g -> fc1_g (in-place)
I1211 18:17:14.913154 27241 net.cpp:122] Setting up relu5_g
I1211 18:17:14.913177 27241 net.cpp:129] Top shape: 1 1024 (1024)
I1211 18:17:14.913197 27241 net.cpp:137] Memory required for data: 35390908
I1211 18:17:14.913218 27241 layer_factory.hpp:77] Creating layer fc2_g
I1211 18:17:14.913242 27241 net.cpp:84] Creating Layer fc2_g
I1211 18:17:14.913264 27241 net.cpp:406] fc2_g <- fc1_g
I1211 18:17:14.913288 27241 net.cpp:380] fc2_g -> fc2_g
I1211 18:17:14.929225 27241 net.cpp:122] Setting up fc2_g
I1211 18:17:14.929265 27241 net.cpp:129] Top shape: 1 1024 (1024)
I1211 18:17:14.929287 27241 net.cpp:137] Memory required for data: 35395004
I1211 18:17:14.929312 27241 layer_factory.hpp:77] Creating layer relu6_g
I1211 18:17:14.929337 27241 net.cpp:84] Creating Layer relu6_g
I1211 18:17:14.929358 27241 net.cpp:406] relu6_g <- fc2_g
I1211 18:17:14.929380 27241 net.cpp:367] relu6_g -> fc2_g (in-place)
I1211 18:17:14.929404 27241 net.cpp:122] Setting up relu6_g
I1211 18:17:14.929427 27241 net.cpp:129] Top shape: 1 1024 (1024)
I1211 18:17:14.929446 27241 net.cpp:137] Memory required for data: 35399100
I1211 18:17:14.929494 27241 layer_factory.hpp:77] Creating layer fc3_g
I1211 18:17:14.929530 27241 net.cpp:84] Creating Layer fc3_g
I1211 18:17:14.929553 27241 net.cpp:406] fc3_g <- fc2_g
I1211 18:17:14.929576 27241 net.cpp:380] fc3_g -> fc3_g
I1211 18:17:14.929713 27241 net.cpp:122] Setting up fc3_g
I1211 18:17:14.929745 27241 net.cpp:129] Top shape: 1 2 (2)
I1211 18:17:14.929766 27241 net.cpp:137] Memory required for data: 35399108
I1211 18:17:14.929790 27241 layer_factory.hpp:77] Creating layer fc3_g_fc3_g_0_split
I1211 18:17:14.929821 27241 net.cpp:84] Creating Layer fc3_g_fc3_g_0_split
I1211 18:17:14.929843 27241 net.cpp:406] fc3_g_fc3_g_0_split <- fc3_g
I1211 18:17:14.929867 27241 net.cpp:380] fc3_g_fc3_g_0_split -> fc3_g_fc3_g_0_split_0
I1211 18:17:14.929891 27241 net.cpp:380] fc3_g_fc3_g_0_split -> fc3_g_fc3_g_0_split_1
I1211 18:17:14.929945 27241 net.cpp:122] Setting up fc3_g_fc3_g_0_split
I1211 18:17:14.929975 27241 net.cpp:129] Top shape: 1 2 (2)
I1211 18:17:14.929996 27241 net.cpp:129] Top shape: 1 2 (2)
I1211 18:17:14.930016 27241 net.cpp:137] Memory required for data: 35399124
I1211 18:17:14.930035 27241 layer_factory.hpp:77] Creating layer loss
I1211 18:17:14.930058 27241 net.cpp:84] Creating Layer loss
I1211 18:17:14.930078 27241 net.cpp:406] loss <- fc3_g_fc3_g_0_split_0
I1211 18:17:14.930099 27241 net.cpp:406] loss <- label_gender_1_split_0
I1211 18:17:14.930124 27241 net.cpp:380] loss -> loss
…
