…
I1206 19:41:32.523783 16500 net.cpp:294] The NetState phase (0) differed from the phase (1) specified by a rule in layer accuracy
I1206 19:41:32.523850 16500 net.cpp:51] Initializing net from parameters:
name: "SimpleFCN"
state {
  phase: TRAIN
  level: 0
  stage: ""
}
layer {
  name: "gender"
  type: "ImageData"
  top: "data"
  top: "label"
  include {
    phase: TRAIN
  }
  transform_param {
    scale: 0.00390625
  }
  image_data_param {
    source: "/home/glebg/dev/deep-learning/train.lst"
    batch_size: 100
    new_height: 150
    new_width: 150
  }
}
layer {
  name: "hidden"
  type: "InnerProduct"
  bottom: "data"
  top: "hidden"
  inner_product_param {
    num_output: 1000
    weight_filler {
      type: "xavier"
    }
    bias_filler {
      type: "constant"
    }
  }
}
layer {
  name: "sigmoid"
  type: "Sigmoid"
  bottom: "hidden"
  top: "sigmoid"
}
layer {
  name: "ip"
  type: "InnerProduct"
  bottom: "sigmoid"
  top: "ip"
  inner_product_param {
    num_output: 2
    weight_filler {
      type: "xavier"
    }
    bias_filler {
      type: "constant"
    }
  }
}
layer {
  name: "loss"
  type: "SoftmaxWithLoss"
  bottom: "ip"
  bottom: "label"
  top: "loss"
}
I1206 19:41:32.523926 16500 layer_factory.hpp:77] Creating layer gender
I1206 19:41:32.523960 16500 net.cpp:84] Creating Layer gender
I1206 19:41:32.523968 16500 net.cpp:380] gender -> data
I1206 19:41:32.523984 16500 net.cpp:380] gender -> label
I1206 19:41:32.524020 16500 image_data_layer.cpp:38] Opening file /home/glebg/dev/deep-learning/train.lst
I1206 19:41:32.539209 16500 image_data_layer.cpp:63] A total of 47000 images.
I1206 19:41:32.618224 16500 image_data_layer.cpp:90] output data size: 100,3,150,150
I1206 19:41:32.655977 16500 net.cpp:122] Setting up gender
I1206 19:41:32.655994 16500 net.cpp:129] Top shape: 100 3 150 150 (6750000)
I1206 19:41:32.656021 16500 net.cpp:129] Top shape: 100 (100)
I1206 19:41:32.656024 16500 net.cpp:137] Memory required for data: 27000400
I1206 19:41:32.656029 16500 layer_factory.hpp:77] Creating layer hidden
I1206 19:41:32.656039 16500 net.cpp:84] Creating Layer hidden
I1206 19:41:32.656059 16500 net.cpp:406] hidden <- data
I1206 19:41:32.656067 16500 net.cpp:380] hidden -> hidden
I1206 19:41:33.048422 16500 net.cpp:122] Setting up hidden
I1206 19:41:33.048455 16500 net.cpp:129] Top shape: 100 1000 (100000)
I1206 19:41:33.048458 16500 net.cpp:137] Memory required for data: 27400400
I1206 19:41:33.048490 16500 layer_factory.hpp:77] Creating layer sigmoid
I1206 19:41:33.048498 16500 net.cpp:84] Creating Layer sigmoid
I1206 19:41:33.048518 16500 net.cpp:406] sigmoid <- hidden
I1206 19:41:33.048527 16500 net.cpp:380] sigmoid -> sigmoid
I1206 19:41:33.048564 16500 net.cpp:122] Setting up sigmoid
I1206 19:41:33.048568 16500 net.cpp:129] Top shape: 100 1000 (100000)
I1206 19:41:33.048570 16500 net.cpp:137] Memory required for data: 27800400
I1206 19:41:33.048573 16500 layer_factory.hpp:77] Creating layer ip
I1206 19:41:33.048601 16500 net.cpp:84] Creating Layer ip
I1206 19:41:33.048604 16500 net.cpp:406] ip <- sigmoid
I1206 19:41:33.048609 16500 net.cpp:380] ip -> ip
I1206 19:41:33.049537 16500 net.cpp:122] Setting up ip
I1206 19:41:33.049567 16500 net.cpp:129] Top shape: 100 2 (200)
I1206 19:41:33.049571 16500 net.cpp:137] Memory required for data: 27801200
I1206 19:41:33.049595 16500 layer_factory.hpp:77] Creating layer loss
I1206 19:41:33.049602 16500 net.cpp:84] Creating Layer loss
I1206 19:41:33.049604 16500 net.cpp:406] loss <- ip
I1206 19:41:33.049608 16500 net.cpp:406] loss <- label
I1206 19:41:33.049613 16500 net.cpp:380] loss -> loss
I1206 19:41:33.049623 16500 layer_factory.hpp:77] Creating layer loss
…
I1206 19:41:33.049854 16500 solver.cpp:172] Creating test net (#0) specified by net file: /home/glebg/dev/deep-learning/lab1/exp_1_sigmoid/gender_fcn.prototxt
I1206 19:41:33.049883 16500 net.cpp:294] The NetState phase (1) differed from the phase (0) specified by a rule in layer gender
I1206 19:41:33.049921 16500 net.cpp:51] Initializing net from parameters:
name: "SimpleFCN"
state {
  phase: TEST
}
layer {
  name: "dataset_name"
  type: "ImageData"
  top: "data"
  top: "label"
  include {
    phase: TEST
  }
  transform_param {
    scale: 0.00390625
  }
  image_data_param {
    source: "/home/glebg/dev/deep-learning/test.lst"
    batch_size: 100
    new_height: 150
    new_width: 150
  }
}
layer {
  name: "hidden"
  type: "InnerProduct"
  bottom: "data"
  top: "hidden"
  inner_product_param {
    num_output: 1000
    weight_filler {
      type: "xavier"
    }
    bias_filler {
      type: "constant"
    }
  }
}
layer {
  name: "sigmoid"
  type: "Sigmoid"
  bottom: "hidden"
  top: "sigmoid"
}
layer {
  name: "ip"
  type: "InnerProduct"
  bottom: "sigmoid"
  top: "ip"
  inner_product_param {
    num_output: 2
    weight_filler {
      type: "xavier"
    }
    bias_filler {
      type: "constant"
    }
  }
}
layer {
  name: "loss"
  type: "SoftmaxWithLoss"
  bottom: "ip"
  bottom: "label"
  top: "loss"
}
layer {
  name: "accuracy"
  type: "Accuracy"
  bottom: "ip"
  bottom: "label"
  top: "accuracy"
  include {
    phase: TEST
  }
}
I1206 19:41:33.049953 16500 layer_factory.hpp:77] Creating layer dataset_name
I1206 19:41:33.049962 16500 net.cpp:84] Creating Layer dataset_name
I1206 19:41:33.049965 16500 net.cpp:380] dataset_name -> data
I1206 19:41:33.049970 16500 net.cpp:380] dataset_name -> label
I1206 19:41:33.049975 16500 image_data_layer.cpp:38] Opening file /home/glebg/dev/deep-learning/test.lst
I1206 19:41:33.053503 16500 image_data_layer.cpp:63] A total of 12000 images.
I1206 19:41:33.054044 16500 image_data_layer.cpp:90] output data size: 100,3,150,150
I1206 19:41:33.092320 16500 net.cpp:122] Setting up dataset_name
I1206 19:41:33.092375 16500 net.cpp:129] Top shape: 100 3 150 150 (6750000)
I1206 19:41:33.092386 16500 net.cpp:129] Top shape: 100 (100)
I1206 19:41:33.092393 16500 net.cpp:137] Memory required for data: 27000400
I1206 19:41:33.092404 16500 layer_factory.hpp:77] Creating layer label_dataset_name_1_split
I1206 19:41:33.092419 16500 net.cpp:84] Creating Layer label_dataset_name_1_split
I1206 19:41:33.092433 16500 net.cpp:406] label_dataset_name_1_split <- label
I1206 19:41:33.092444 16500 net.cpp:380] label_dataset_name_1_split -> label_dataset_name_1_split_0
I1206 19:41:33.092458 16500 net.cpp:380] label_dataset_name_1_split -> label_dataset_name_1_split_1
I1206 19:41:33.092499 16500 net.cpp:122] Setting up label_dataset_name_1_split
I1206 19:41:33.092512 16500 net.cpp:129] Top shape: 100 (100)
I1206 19:41:33.092526 16500 net.cpp:129] Top shape: 100 (100)
I1206 19:41:33.092545 16500 net.cpp:137] Memory required for data: 27001200
I1206 19:41:33.092552 16500 layer_factory.hpp:77] Creating layer hidden
I1206 19:41:33.092566 16500 net.cpp:84] Creating Layer hidden
I1206 19:41:33.092573 16500 net.cpp:406] hidden <- data
I1206 19:41:33.092583 16500 net.cpp:380] hidden -> hidden
I1206 19:41:33.409934 16500 net.cpp:122] Setting up hidden
I1206 19:41:33.409970 16500 net.cpp:129] Top shape: 100 1000 (100000)
I1206 19:41:33.409971 16500 net.cpp:137] Memory required for data: 27401200
I1206 19:41:33.409996 16500 layer_factory.hpp:77] Creating layer sigmoid
I1206 19:41:33.410018 16500 net.cpp:84] Creating Layer sigmoid
I1206 19:41:33.410022 16500 net.cpp:406] sigmoid <- hidden
I1206 19:41:33.410028 16500 net.cpp:380] sigmoid -> sigmoid
I1206 19:41:33.410064 16500 net.cpp:122] Setting up sigmoid
I1206 19:41:33.410069 16500 net.cpp:129] Top shape: 100 1000 (100000)
I1206 19:41:33.410071 16500 net.cpp:137] Memory required for data: 27801200
I1206 19:41:33.410074 16500 layer_factory.hpp:77] Creating layer ip
I1206 19:41:33.410079 16500 net.cpp:84] Creating Layer ip
I1206 19:41:33.410084 16500 net.cpp:406] ip <- sigmoid
I1206 19:41:33.410087 16500 net.cpp:380] ip -> ip
I1206 19:41:33.410163 16500 net.cpp:122] Setting up ip
I1206 19:41:33.410168 16500 net.cpp:129] Top shape: 100 2 (200)
I1206 19:41:33.410171 16500 net.cpp:137] Memory required for data: 27802000
I1206 19:41:33.410176 16500 layer_factory.hpp:77] Creating layer ip_ip_0_split
I1206 19:41:33.410179 16500 net.cpp:84] Creating Layer ip_ip_0_split
I1206 19:41:33.410182 16500 net.cpp:406] ip_ip_0_split <- ip
I1206 19:41:33.410185 16500 net.cpp:380] ip_ip_0_split -> ip_ip_0_split_0
I1206 19:41:33.410189 16500 net.cpp:380] ip_ip_0_split -> ip_ip_0_split_1
I1206 19:41:33.410212 16500 net.cpp:122] Setting up ip_ip_0_split
I1206 19:41:33.410215 16500 net.cpp:129] Top shape: 100 2 (200)
I1206 19:41:33.410218 16500 net.cpp:129] Top shape: 100 2 (200)
I1206 19:41:33.410223 16500 net.cpp:137] Memory required for data: 27803600
I1206 19:41:33.410224 16500 layer_factory.hpp:77] Creating layer loss
I1206 19:41:33.410228 16500 net.cpp:84] Creating Layer loss
I1206 19:41:33.410230 16500 net.cpp:406] loss <- ip_ip_0_split_0
I1206 19:41:33.410233 16500 net.cpp:406] loss <- label_dataset_name_1_split_0
I1206 19:41:33.410238 16500 net.cpp:380] loss -> loss
…
