…
I1206 19:56:53.379904 17709 net.cpp:294] The NetState phase (0) differed from the phase (1) specified by a rule in layer accuracy
I1206 19:56:53.379943 17709 net.cpp:51] Initializing net from parameters: 
name: "SimpleFCN"
state {
  phase: TRAIN
  level: 0
  stage: ""
}
layer {
  name: "gender"
  type: "ImageData"
  top: "data"
  top: "label"
  include {
    phase: TRAIN
  }
  transform_param {
    scale: 0.00390625
  }
  image_data_param {
    source: "/home/glebg/dev/deep-learning/train.lst"
    batch_size: 100
    new_height: 150
    new_width: 150
  }
}
layer {
  name: "hidden1"
  type: "InnerProduct"
  bottom: "data"
  top: "hidden1"
  inner_product_param {
    num_output: 400
    weight_filler {
      type: "xavier"
    }
    bias_filler {
      type: "constant"
    }
  }
}
layer {
  name: "elu"
  type: "ELU"
  bottom: "hidden1"
  top: "elu"
}
layer {
  name: "hidden2"
  type: "InnerProduct"
  bottom: "elu"
  top: "hidden2"
  inner_product_param {
    num_output: 50
    weight_filler {
      type: "xavier"
    }
    bias_filler {
      type: "constant"
    }
  }
}
layer {
  name: "tanh"
  type: "TanH"
  bottom: "hidden2"
  top: "tanh"
}
layer {
  name: "ip"
  type: "InnerProduct"
  bottom: "tanh"
  top: "ip"
  inner_product_param {
    num_output: 2
    weight_filler {
      type: "xavier"
    }
    bias_filler {
      type: "constant"
    }
  }
}
layer {
  name: "loss"
  type: "SoftmaxWithLoss"
  bottom: "ip"
  bottom: "label"
  top: "loss"
}
I1206 19:56:53.379999 17709 layer_factory.hpp:77] Creating layer gender
I1206 19:56:53.380035 17709 net.cpp:84] Creating Layer gender
I1206 19:56:53.380040 17709 net.cpp:380] gender -> data
I1206 19:56:53.380055 17709 net.cpp:380] gender -> label
I1206 19:56:53.380128 17709 image_data_layer.cpp:38] Opening file /home/glebg/dev/deep-learning/train.lst
I1206 19:56:53.395018 17709 image_data_layer.cpp:63] A total of 47000 images.
I1206 19:56:53.476194 17709 image_data_layer.cpp:90] output data size: 100,3,150,150
I1206 19:56:53.511198 17709 net.cpp:122] Setting up gender
I1206 19:56:53.511234 17709 net.cpp:129] Top shape: 100 3 150 150 (6750000)
I1206 19:56:53.511237 17709 net.cpp:129] Top shape: 100 (100)
I1206 19:56:53.511240 17709 net.cpp:137] Memory required for data: 27000400
I1206 19:56:53.511245 17709 layer_factory.hpp:77] Creating layer hidden1
I1206 19:56:53.511274 17709 net.cpp:84] Creating Layer hidden1
I1206 19:56:53.511278 17709 net.cpp:406] hidden1 <- data
I1206 19:56:53.511286 17709 net.cpp:380] hidden1 -> hidden1
I1206 19:56:53.669832 17709 net.cpp:122] Setting up hidden1
I1206 19:56:53.669864 17709 net.cpp:129] Top shape: 100 400 (40000)
I1206 19:56:53.669869 17709 net.cpp:137] Memory required for data: 27160400
I1206 19:56:53.669888 17709 layer_factory.hpp:77] Creating layer elu
I1206 19:56:53.669910 17709 net.cpp:84] Creating Layer elu
I1206 19:56:53.669914 17709 net.cpp:406] elu <- hidden1
I1206 19:56:53.669917 17709 net.cpp:380] elu -> elu
I1206 19:56:53.669935 17709 net.cpp:122] Setting up elu
I1206 19:56:53.669955 17709 net.cpp:129] Top shape: 100 400 (40000)
I1206 19:56:53.669965 17709 net.cpp:137] Memory required for data: 27320400
I1206 19:56:53.669972 17709 layer_factory.hpp:77] Creating layer hidden2
I1206 19:56:53.669988 17709 net.cpp:84] Creating Layer hidden2
I1206 19:56:53.670009 17709 net.cpp:406] hidden2 <- elu
I1206 19:56:53.670020 17709 net.cpp:380] hidden2 -> hidden2
I1206 19:56:53.670925 17709 net.cpp:122] Setting up hidden2
I1206 19:56:53.670938 17709 net.cpp:129] Top shape: 100 50 (5000)
I1206 19:56:53.670939 17709 net.cpp:137] Memory required for data: 27340400
I1206 19:56:53.670948 17709 layer_factory.hpp:77] Creating layer tanh
I1206 19:56:53.670954 17709 net.cpp:84] Creating Layer tanh
I1206 19:56:53.670969 17709 net.cpp:406] tanh <- hidden2
I1206 19:56:53.670979 17709 net.cpp:380] tanh -> tanh
I1206 19:56:53.671005 17709 net.cpp:122] Setting up tanh
I1206 19:56:53.671011 17709 net.cpp:129] Top shape: 100 50 (5000)
I1206 19:56:53.671012 17709 net.cpp:137] Memory required for data: 27360400
I1206 19:56:53.671015 17709 layer_factory.hpp:77] Creating layer ip
I1206 19:56:53.671020 17709 net.cpp:84] Creating Layer ip
I1206 19:56:53.671021 17709 net.cpp:406] ip <- tanh
I1206 19:56:53.671025 17709 net.cpp:380] ip -> ip
I1206 19:56:53.671082 17709 net.cpp:122] Setting up ip
I1206 19:56:53.671087 17709 net.cpp:129] Top shape: 100 2 (200)
I1206 19:56:53.671088 17709 net.cpp:137] Memory required for data: 27361200
I1206 19:56:53.671093 17709 layer_factory.hpp:77] Creating layer loss
I1206 19:56:53.671097 17709 net.cpp:84] Creating Layer loss
I1206 19:56:53.671100 17709 net.cpp:406] loss <- ip
I1206 19:56:53.671103 17709 net.cpp:406] loss <- label
I1206 19:56:53.671106 17709 net.cpp:380] loss -> loss
I1206 19:56:53.671114 17709 layer_factory.hpp:77] Creating layer loss
…
I1206 19:56:53.671317 17709 solver.cpp:172] Creating test net (#0) specified by net file: /home/glebg/dev/deep-learning/lab1/exp_2_elu_tanh/gender_fcn.prototxt
I1206 19:56:53.671329 17709 net.cpp:294] The NetState phase (1) differed from the phase (0) specified by a rule in layer gender
I1206 19:56:53.671385 17709 net.cpp:51] Initializing net from parameters: 
name: "SimpleFCN"
state {
  phase: TEST
}
layer {
  name: "dataset_name"
  type: "ImageData"
  top: "data"
  top: "label"
  include {
    phase: TEST
  }
  transform_param {
    scale: 0.00390625
  }
  image_data_param {
    source: "/home/glebg/dev/deep-learning/test.lst"
    batch_size: 100
    new_height: 150
    new_width: 150
  }
}
layer {
  name: "hidden1"
  type: "InnerProduct"
  bottom: "data"
  top: "hidden1"
  inner_product_param {
    num_output: 400
    weight_filler {
      type: "xavier"
    }
    bias_filler {
      type: "constant"
    }
  }
}
layer {
  name: "elu"
  type: "ELU"
  bottom: "hidden1"
  top: "elu"
}
layer {
  name: "hidden2"
  type: "InnerProduct"
  bottom: "elu"
  top: "hidden2"
  inner_product_param {
    num_output: 50
    weight_filler {
      type: "xavier"
    }
    bias_filler {
      type: "constant"
    }
  }
}
layer {
  name: "tanh"
  type: "TanH"
  bottom: "hidden2"
  top: "tanh"
}
layer {
  name: "ip"
  type: "InnerProduct"
  bottom: "tanh"
  top: "ip"
  inner_product_param {
    num_output: 2
    weight_filler {
      type: "xavier"
    }
    bias_filler {
      type: "constant"
    }
  }
}
layer {
  name: "loss"
  type: "SoftmaxWithLoss"
  bottom: "ip"
  bottom: "label"
  top: "loss"
}
layer {
  name: "accuracy"
  type: "Accuracy"
  bottom: "ip"
  bottom: "label"
  top: "accuracy"
  include {
    phase: TEST
  }
}
I1206 19:56:53.671442 17709 layer_factory.hpp:77] Creating layer dataset_name
I1206 19:56:53.671450 17709 net.cpp:84] Creating Layer dataset_name
I1206 19:56:53.671454 17709 net.cpp:380] dataset_name -> data
I1206 19:56:53.671459 17709 net.cpp:380] dataset_name -> label
I1206 19:56:53.671464 17709 image_data_layer.cpp:38] Opening file /home/glebg/dev/deep-learning/test.lst
I1206 19:56:53.674737 17709 image_data_layer.cpp:63] A total of 12000 images.
I1206 19:56:53.675151 17709 image_data_layer.cpp:90] output data size: 100,3,150,150
I1206 19:56:53.711313 17709 net.cpp:122] Setting up dataset_name
I1206 19:56:53.711330 17709 net.cpp:129] Top shape: 100 3 150 150 (6750000)
I1206 19:56:53.711357 17709 net.cpp:129] Top shape: 100 (100)
I1206 19:56:53.711359 17709 net.cpp:137] Memory required for data: 27000400
I1206 19:56:53.711364 17709 layer_factory.hpp:77] Creating layer label_dataset_name_1_split
I1206 19:56:53.711374 17709 net.cpp:84] Creating Layer label_dataset_name_1_split
I1206 19:56:53.711391 17709 net.cpp:406] label_dataset_name_1_split <- label
I1206 19:56:53.711396 17709 net.cpp:380] label_dataset_name_1_split -> label_dataset_name_1_split_0
I1206 19:56:53.711402 17709 net.cpp:380] label_dataset_name_1_split -> label_dataset_name_1_split_1
I1206 19:56:53.711771 17709 net.cpp:122] Setting up label_dataset_name_1_split
I1206 19:56:53.711805 17709 net.cpp:129] Top shape: 100 (100)
I1206 19:56:53.711808 17709 net.cpp:129] Top shape: 100 (100)
I1206 19:56:53.711810 17709 net.cpp:137] Memory required for data: 27001200
I1206 19:56:53.711812 17709 layer_factory.hpp:77] Creating layer hidden1
I1206 19:56:53.711819 17709 net.cpp:84] Creating Layer hidden1
I1206 19:56:53.711822 17709 net.cpp:406] hidden1 <- data
I1206 19:56:53.711825 17709 net.cpp:380] hidden1 -> hidden1
I1206 19:56:53.837474 17709 net.cpp:122] Setting up hidden1
I1206 19:56:53.837513 17709 net.cpp:129] Top shape: 100 400 (40000)
I1206 19:56:53.837517 17709 net.cpp:137] Memory required for data: 27161200
I1206 19:56:53.837527 17709 layer_factory.hpp:77] Creating layer elu
I1206 19:56:53.837532 17709 net.cpp:84] Creating Layer elu
I1206 19:56:53.837551 17709 net.cpp:406] elu <- hidden1
I1206 19:56:53.837556 17709 net.cpp:380] elu -> elu
I1206 19:56:53.837577 17709 net.cpp:122] Setting up elu
I1206 19:56:53.837597 17709 net.cpp:129] Top shape: 100 400 (40000)
I1206 19:56:53.837606 17709 net.cpp:137] Memory required for data: 27321200
I1206 19:56:53.837615 17709 layer_factory.hpp:77] Creating layer hidden2
I1206 19:56:53.837625 17709 net.cpp:84] Creating Layer hidden2
I1206 19:56:53.837635 17709 net.cpp:406] hidden2 <- elu
I1206 19:56:53.837644 17709 net.cpp:380] hidden2 -> hidden2
I1206 19:56:53.837859 17709 net.cpp:122] Setting up hidden2
I1206 19:56:53.837882 17709 net.cpp:129] Top shape: 100 50 (5000)
I1206 19:56:53.837883 17709 net.cpp:137] Memory required for data: 27341200
I1206 19:56:53.837888 17709 layer_factory.hpp:77] Creating layer tanh
I1206 19:56:53.837893 17709 net.cpp:84] Creating Layer tanh
I1206 19:56:53.837895 17709 net.cpp:406] tanh <- hidden2
I1206 19:56:53.837898 17709 net.cpp:380] tanh -> tanh
I1206 19:56:53.837913 17709 net.cpp:122] Setting up tanh
I1206 19:56:53.837924 17709 net.cpp:129] Top shape: 100 50 (5000)
I1206 19:56:53.837932 17709 net.cpp:137] Memory required for data: 27361200
I1206 19:56:53.837940 17709 layer_factory.hpp:77] Creating layer ip
I1206 19:56:53.837949 17709 net.cpp:84] Creating Layer ip
I1206 19:56:53.837960 17709 net.cpp:406] ip <- tanh
I1206 19:56:53.837968 17709 net.cpp:380] ip -> ip
I1206 19:56:53.838035 17709 net.cpp:122] Setting up ip
I1206 19:56:53.838042 17709 net.cpp:129] Top shape: 100 2 (200)
I1206 19:56:53.838043 17709 net.cpp:137] Memory required for data: 27362000
I1206 19:56:53.838048 17709 layer_factory.hpp:77] Creating layer ip_ip_0_split
I1206 19:56:53.838052 17709 net.cpp:84] Creating Layer ip_ip_0_split
I1206 19:56:53.838053 17709 net.cpp:406] ip_ip_0_split <- ip
I1206 19:56:53.838069 17709 net.cpp:380] ip_ip_0_split -> ip_ip_0_split_0
I1206 19:56:53.838074 17709 net.cpp:380] ip_ip_0_split -> ip_ip_0_split_1
I1206 19:56:53.838094 17709 net.cpp:122] Setting up ip_ip_0_split
I1206 19:56:53.838098 17709 net.cpp:129] Top shape: 100 2 (200)
I1206 19:56:53.838100 17709 net.cpp:129] Top shape: 100 2 (200)
I1206 19:56:53.838101 17709 net.cpp:137] Memory required for data: 27363600
I1206 19:56:53.838104 17709 layer_factory.hpp:77] Creating layer loss
I1206 19:56:53.838107 17709 net.cpp:84] Creating Layer loss
I1206 19:56:53.838119 17709 net.cpp:406] loss <- ip_ip_0_split_0
I1206 19:56:53.838129 17709 net.cpp:406] loss <- label_dataset_name_1_split_0
I1206 19:56:53.838137 17709 net.cpp:380] loss -> loss
…
