…
I1206 19:46:53.419013 11570 net.cpp:294] The NetState phase (0) differed from the phase (1) specified by a rule in layer accuracy
I1206 19:46:53.419148 11570 net.cpp:51] Initializing net from parameters: 
name: "SimpleFCN"
state {
  phase: TRAIN
  level: 0
  stage: ""
}
layer {
  name: "gender"
  type: "ImageData"
  top: "data"
  top: "label"
  include {
    phase: TRAIN
  }
  transform_param {
    scale: 0.00390625
  }
  image_data_param {
    source: "../train.lst"
    batch_size: 100
    new_height: 150
    new_width: 150
    root_folder: "../data/"
  }
}
layer {
  name: "hidden1"
  type: "InnerProduct"
  bottom: "data"
  top: "hidden1"
  inner_product_param {
    num_output: 400
    weight_filler {
      type: "xavier"
    }
    bias_filler {
      type: "constant"
    }
  }
}
layer {
  name: "relu"
  type: "ReLU"
  bottom: "hidden1"
  top: "relu"
}
layer {
  name: "hidden2"
  type: "InnerProduct"
  bottom: "relu"
  top: "hidden2"
  inner_product_param {
    num_output: 50
    weight_filler {
      type: "xavier"
    }
    bias_filler {
      type: "constant"
    }
  }
}
layer {
  name: "sigm"
  type: "Sigmoid"
  bottom: "hidden2"
  top: "sigm"
}
layer {
  name: "ip"
  type: "InnerProduct"
  bottom: "sigm"
  top: "ip"
  inner_product_param {
    num_output: 2
    weight_filler {
      type: "xavier"
    }
    bias_filler {
      type: "constant"
    }
  }
}
layer {
  name: "loss"
  type: "SoftmaxWithLoss"
  bottom: "ip"
  bottom: "label"
  top: "loss"
}
I1206 19:46:53.422143 11570 layer_factory.hpp:77] Creating layer gender
I1206 19:46:53.423894 11570 net.cpp:84] Creating Layer gender
I1206 19:46:53.424510 11570 net.cpp:380] gender -> data
I1206 19:46:53.425680 11570 net.cpp:380] gender -> label
I1206 19:46:53.427289 11570 image_data_layer.cpp:38] Opening file ../train.lst
I1206 19:46:53.451145 11570 image_data_layer.cpp:63] A total of 47000 images.
I1206 19:46:54.837749 11570 image_data_layer.cpp:90] output data size: 100,3,150,150
I1206 19:46:54.918524 11570 net.cpp:122] Setting up gender
I1206 19:46:54.919355 11570 net.cpp:129] Top shape: 100 3 150 150 (6750000)
I1206 19:46:54.919385 11570 net.cpp:129] Top shape: 100 (100)
I1206 19:46:54.919405 11570 net.cpp:137] Memory required for data: 27000400
I1206 19:46:54.919430 11570 layer_factory.hpp:77] Creating layer hidden1
I1206 19:46:54.920349 11570 net.cpp:84] Creating Layer hidden1
I1206 19:46:54.920387 11570 net.cpp:406] hidden1 <- data
I1206 19:46:54.920419 11570 net.cpp:380] hidden1 -> hidden1
I1206 19:46:55.193321 11570 net.cpp:122] Setting up hidden1
I1206 19:46:55.193403 11570 net.cpp:129] Top shape: 100 400 (40000)
I1206 19:46:55.193426 11570 net.cpp:137] Memory required for data: 27160400
I1206 19:46:55.194181 11570 layer_factory.hpp:77] Creating layer relu
I1206 19:46:55.195454 11570 net.cpp:84] Creating Layer relu
I1206 19:46:55.195502 11570 net.cpp:406] relu <- hidden1
I1206 19:46:55.195542 11570 net.cpp:380] relu -> relu
I1206 19:46:55.196104 11570 net.cpp:122] Setting up relu
I1206 19:46:55.196146 11570 net.cpp:129] Top shape: 100 400 (40000)
I1206 19:46:55.196182 11570 net.cpp:137] Memory required for data: 27320400
I1206 19:46:55.196208 11570 layer_factory.hpp:77] Creating layer hidden2
I1206 19:46:55.196233 11570 net.cpp:84] Creating Layer hidden2
I1206 19:46:55.196255 11570 net.cpp:406] hidden2 <- relu
I1206 19:46:55.196280 11570 net.cpp:380] hidden2 -> hidden2
I1206 19:46:55.197206 11570 net.cpp:122] Setting up hidden2
I1206 19:46:55.197258 11570 net.cpp:129] Top shape: 100 50 (5000)
I1206 19:46:55.197286 11570 net.cpp:137] Memory required for data: 27340400
I1206 19:46:55.197314 11570 layer_factory.hpp:77] Creating layer sigm
I1206 19:46:55.197341 11570 net.cpp:84] Creating Layer sigm
I1206 19:46:55.197363 11570 net.cpp:406] sigm <- hidden2
I1206 19:46:55.197386 11570 net.cpp:380] sigm -> sigm
I1206 19:46:55.197896 11570 net.cpp:122] Setting up sigm
I1206 19:46:55.197953 11570 net.cpp:129] Top shape: 100 50 (5000)
I1206 19:46:55.197978 11570 net.cpp:137] Memory required for data: 27360400
I1206 19:46:55.198000 11570 layer_factory.hpp:77] Creating layer ip
I1206 19:46:55.198029 11570 net.cpp:84] Creating Layer ip
I1206 19:46:55.198053 11570 net.cpp:406] ip <- sigm
I1206 19:46:55.198083 11570 net.cpp:380] ip -> ip
I1206 19:46:55.198221 11570 net.cpp:122] Setting up ip
I1206 19:46:55.198257 11570 net.cpp:129] Top shape: 100 2 (200)
I1206 19:46:55.198279 11570 net.cpp:137] Memory required for data: 27361200
I1206 19:46:55.198309 11570 layer_factory.hpp:77] Creating layer loss
I1206 19:46:55.199095 11570 net.cpp:84] Creating Layer loss
I1206 19:46:55.199133 11570 net.cpp:406] loss <- ip
I1206 19:46:55.199170 11570 net.cpp:406] loss <- label
I1206 19:46:55.199195 11570 net.cpp:380] loss -> loss
I1206 19:46:55.201055 11570 layer_factory.hpp:77] Creating layer loss
…
I1206 19:46:55.202965 11570 solver.cpp:172] Creating test net (#0) specified by net file: gender_fcn.prototxt
I1206 19:46:55.203021 11570 net.cpp:294] The NetState phase (1) differed from the phase (0) specified by a rule in layer gender
I1206 19:46:55.203142 11570 net.cpp:51] Initializing net from parameters: 
name: "SimpleFCN"
state {
  phase: TEST
}
layer {
  name: "gender"
  type: "ImageData"
  top: "data"
  top: "label"
  include {
    phase: TEST
  }
  transform_param {
    scale: 0.00390625
  }
  image_data_param {
    source: "../test.lst"
    batch_size: 100
    new_height: 150
    new_width: 150
    root_folder: "../data/"
  }
}
layer {
  name: "hidden1"
  type: "InnerProduct"
  bottom: "data"
  top: "hidden1"
  inner_product_param {
    num_output: 400
    weight_filler {
      type: "xavier"
    }
    bias_filler {
      type: "constant"
    }
  }
}
layer {
  name: "relu"
  type: "ReLU"
  bottom: "hidden1"
  top: "relu"
}
layer {
  name: "hidden2"
  type: "InnerProduct"
  bottom: "relu"
  top: "hidden2"
  inner_product_param {
    num_output: 50
    weight_filler {
      type: "xavier"
    }
    bias_filler {
      type: "constant"
    }
  }
}
layer {
  name: "sigm"
  type: "Sigmoid"
  bottom: "hidden2"
  top: "sigm"
}
layer {
  name: "ip"
  type: "InnerProduct"
  bottom: "sigm"
  top: "ip"
  inner_product_param {
    num_output: 2
    weight_filler {
      type: "xavier"
    }
    bias_filler {
      type: "constant"
    }
  }
}
layer {
  name: "loss"
  type: "SoftmaxWithLoss"
  bottom: "ip"
  bottom: "label"
  top: "loss"
}
layer {
  name: "accuracy"
  type: "Accuracy"
  bottom: "ip"
  bottom: "label"
  top: "accuracy"
  include {
    phase: TEST
  }
}
I1206 19:46:55.203546 11570 layer_factory.hpp:77] Creating layer gender
I1206 19:46:55.203588 11570 net.cpp:84] Creating Layer gender
I1206 19:46:55.203629 11570 net.cpp:380] gender -> data
I1206 19:46:55.203660 11570 net.cpp:380] gender -> label
I1206 19:46:55.203689 11570 image_data_layer.cpp:38] Opening file ../test.lst
I1206 19:46:55.210738 11570 image_data_layer.cpp:63] A total of 12000 images.
I1206 19:46:55.213573 11570 image_data_layer.cpp:90] output data size: 100,3,150,150
I1206 19:46:55.293618 11570 net.cpp:122] Setting up gender
I1206 19:46:55.305486 11570 net.cpp:129] Top shape: 100 3 150 150 (6750000)
I1206 19:46:55.305527 11570 net.cpp:129] Top shape: 100 (100)
I1206 19:46:55.305550 11570 net.cpp:137] Memory required for data: 27000400
I1206 19:46:55.305572 11570 layer_factory.hpp:77] Creating layer label_gender_1_split
I1206 19:46:55.306443 11570 net.cpp:84] Creating Layer label_gender_1_split
I1206 19:46:55.306483 11570 net.cpp:406] label_gender_1_split <- label
I1206 19:46:55.306512 11570 net.cpp:380] label_gender_1_split -> label_gender_1_split_0
I1206 19:46:55.306565 11570 net.cpp:380] label_gender_1_split -> label_gender_1_split_1
I1206 19:46:55.317746 11570 net.cpp:122] Setting up label_gender_1_split
I1206 19:46:55.317816 11570 net.cpp:129] Top shape: 100 (100)
I1206 19:46:55.317849 11570 net.cpp:129] Top shape: 100 (100)
I1206 19:46:55.317876 11570 net.cpp:137] Memory required for data: 27001200
I1206 19:46:55.317903 11570 layer_factory.hpp:77] Creating layer hidden1
I1206 19:46:55.317937 11570 net.cpp:84] Creating Layer hidden1
I1206 19:46:55.317965 11570 net.cpp:406] hidden1 <- data
I1206 19:46:55.317997 11570 net.cpp:380] hidden1 -> hidden1
I1206 19:46:55.633041 11570 net.cpp:122] Setting up hidden1
I1206 19:46:55.633116 11570 net.cpp:129] Top shape: 100 400 (40000)
I1206 19:46:55.633144 11570 net.cpp:137] Memory required for data: 27161200
I1206 19:46:55.633179 11570 layer_factory.hpp:77] Creating layer relu
I1206 19:46:55.633209 11570 net.cpp:84] Creating Layer relu
I1206 19:46:55.633234 11570 net.cpp:406] relu <- hidden1
I1206 19:46:55.633261 11570 net.cpp:380] relu -> relu
I1206 19:46:55.633313 11570 net.cpp:122] Setting up relu
I1206 19:46:55.633349 11570 net.cpp:129] Top shape: 100 400 (40000)
I1206 19:46:55.633373 11570 net.cpp:137] Memory required for data: 27321200
I1206 19:46:55.633397 11570 layer_factory.hpp:77] Creating layer hidden2
I1206 19:46:55.633424 11570 net.cpp:84] Creating Layer hidden2
I1206 19:46:55.633447 11570 net.cpp:406] hidden2 <- relu
I1206 19:46:55.633491 11570 net.cpp:380] hidden2 -> hidden2
I1206 19:46:55.633803 11570 net.cpp:122] Setting up hidden2
I1206 19:46:55.633841 11570 net.cpp:129] Top shape: 100 50 (5000)
I1206 19:46:55.633864 11570 net.cpp:137] Memory required for data: 27341200
I1206 19:46:55.633893 11570 layer_factory.hpp:77] Creating layer sigm
I1206 19:46:55.633919 11570 net.cpp:84] Creating Layer sigm
I1206 19:46:55.633941 11570 net.cpp:406] sigm <- hidden2
I1206 19:46:55.633965 11570 net.cpp:380] sigm -> sigm
I1206 19:46:55.634011 11570 net.cpp:122] Setting up sigm
I1206 19:46:55.634040 11570 net.cpp:129] Top shape: 100 50 (5000)
I1206 19:46:55.634080 11570 net.cpp:137] Memory required for data: 27361200
I1206 19:46:55.634109 11570 layer_factory.hpp:77] Creating layer ip
I1206 19:46:55.634138 11570 net.cpp:84] Creating Layer ip
I1206 19:46:55.634163 11570 net.cpp:406] ip <- sigm
I1206 19:46:55.634189 11570 net.cpp:380] ip -> ip
I1206 19:46:55.634305 11570 net.cpp:122] Setting up ip
I1206 19:46:55.634341 11570 net.cpp:129] Top shape: 100 2 (200)
I1206 19:46:55.634366 11570 net.cpp:137] Memory required for data: 27362000
I1206 19:46:55.634395 11570 layer_factory.hpp:77] Creating layer ip_ip_0_split
I1206 19:46:55.634424 11570 net.cpp:84] Creating Layer ip_ip_0_split
I1206 19:46:55.634447 11570 net.cpp:406] ip_ip_0_split <- ip
I1206 19:46:55.634471 11570 net.cpp:380] ip_ip_0_split -> ip_ip_0_split_0
I1206 19:46:55.634498 11570 net.cpp:380] ip_ip_0_split -> ip_ip_0_split_1
I1206 19:46:55.634557 11570 net.cpp:122] Setting up ip_ip_0_split
I1206 19:46:55.634588 11570 net.cpp:129] Top shape: 100 2 (200)
I1206 19:46:55.634634 11570 net.cpp:129] Top shape: 100 2 (200)
I1206 19:46:55.634672 11570 net.cpp:137] Memory required for data: 27363600
I1206 19:46:55.634698 11570 layer_factory.hpp:77] Creating layer loss
I1206 19:46:55.634727 11570 net.cpp:84] Creating Layer loss
I1206 19:46:55.634753 11570 net.cpp:406] loss <- ip_ip_0_split_0
I1206 19:46:55.634778 11570 net.cpp:406] loss <- label_gender_1_split_0
I1206 19:46:55.634806 11570 net.cpp:380] loss -> loss
…
