…
I1206 19:46:11.586745  2353 net.cpp:294] The NetState phase (0) differed from the phase (1) specified by a rule in layer accuracy
I1206 19:46:11.586863  2353 net.cpp:51] Initializing net from parameters: 
name: "SimpleFCN"
state {
  phase: TRAIN
  level: 0
  stage: ""
}
layer {
  name: "gender"
  type: "ImageData"
  top: "data"
  top: "label"
  include {
    phase: TRAIN
  }
  transform_param {
    scale: 0.00390625
  }
  image_data_param {
    source: "../train.lst"
    batch_size: 100
    new_height: 150
    new_width: 150
    root_folder: "../data/"
  }
}
layer {
  name: "hidden"
  type: "InnerProduct"
  bottom: "data"
  top: "hidden"
  inner_product_param {
    num_output: 1000
    weight_filler {
      type: "xavier"
    }
    bias_filler {
      type: "constant"
    }
  }
}
layer {
  name: "tan"
  type: "TanH"
  bottom: "hidden"
  top: "tan"
}
layer {
  name: "ip"
  type: "InnerProduct"
  bottom: "tan"
  top: "ip"
  inner_product_param {
    num_output: 2
    weight_filler {
      type: "xavier"
    }
    bias_filler {
      type: "constant"
    }
  }
}
layer {
  name: "loss"
  type: "SoftmaxWithLoss"
  bottom: "ip"
  bottom: "label"
  top: "loss"
}
I1206 19:46:11.590620  2353 layer_factory.hpp:77] Creating layer gender
I1206 19:46:11.592870  2353 net.cpp:84] Creating Layer gender
I1206 19:46:11.593638  2353 net.cpp:380] gender -> data
I1206 19:46:11.595269  2353 net.cpp:380] gender -> label
I1206 19:46:11.597594  2353 image_data_layer.cpp:38] Opening file ../train.lst
I1206 19:46:11.625361  2353 image_data_layer.cpp:63] A total of 47000 images.
I1206 19:46:13.154124  2353 image_data_layer.cpp:90] output data size: 100,3,150,150
I1206 19:46:13.270151  2353 net.cpp:122] Setting up gender
I1206 19:46:13.271080  2353 net.cpp:129] Top shape: 100 3 150 150 (6750000)
I1206 19:46:13.271128  2353 net.cpp:129] Top shape: 100 (100)
I1206 19:46:13.271157  2353 net.cpp:137] Memory required for data: 27000400
I1206 19:46:13.271188  2353 layer_factory.hpp:77] Creating layer hidden
I1206 19:46:13.271924  2353 net.cpp:84] Creating Layer hidden
I1206 19:46:13.271972  2353 net.cpp:406] hidden <- data
I1206 19:46:13.272016  2353 net.cpp:380] hidden -> hidden
I1206 19:46:14.042457  2353 net.cpp:122] Setting up hidden
I1206 19:46:14.042552  2353 net.cpp:129] Top shape: 100 1000 (100000)
I1206 19:46:14.042582  2353 net.cpp:137] Memory required for data: 27400400
I1206 19:46:14.043115  2353 layer_factory.hpp:77] Creating layer tan
I1206 19:46:14.044097  2353 net.cpp:84] Creating Layer tan
I1206 19:46:14.044137  2353 net.cpp:406] tan <- hidden
I1206 19:46:14.044164  2353 net.cpp:380] tan -> tan
I1206 19:46:14.044529  2353 net.cpp:122] Setting up tan
I1206 19:46:14.044564  2353 net.cpp:129] Top shape: 100 1000 (100000)
I1206 19:46:14.044587  2353 net.cpp:137] Memory required for data: 27800400
I1206 19:46:14.044610  2353 layer_factory.hpp:77] Creating layer ip
I1206 19:46:14.044637  2353 net.cpp:84] Creating Layer ip
I1206 19:46:14.044661  2353 net.cpp:406] ip <- tan
I1206 19:46:14.044683  2353 net.cpp:380] ip -> ip
I1206 19:46:14.045603  2353 net.cpp:122] Setting up ip
I1206 19:46:14.045646  2353 net.cpp:129] Top shape: 100 2 (200)
I1206 19:46:14.045670  2353 net.cpp:137] Memory required for data: 27801200
I1206 19:46:14.045704  2353 layer_factory.hpp:77] Creating layer loss
I1206 19:46:14.046247  2353 net.cpp:84] Creating Layer loss
I1206 19:46:14.046299  2353 net.cpp:406] loss <- ip
I1206 19:46:14.046329  2353 net.cpp:406] loss <- label
I1206 19:46:14.046375  2353 net.cpp:380] loss -> loss
I1206 19:46:14.047677  2353 layer_factory.hpp:77] Creating layer loss
…
I1206 19:46:14.049454  2353 solver.cpp:172] Creating test net (#0) specified by net file: gender_fcn.prototxt
I1206 19:46:14.049515  2353 net.cpp:294] The NetState phase (1) differed from the phase (0) specified by a rule in layer gender
I1206 19:46:14.049633  2353 net.cpp:51] Initializing net from parameters: 
name: "SimpleFCN"
state {
  phase: TEST
}
layer {
  name: "gender"
  type: "ImageData"
  top: "data"
  top: "label"
  include {
    phase: TEST
  }
  transform_param {
    scale: 0.00390625
  }
  image_data_param {
    source: "../test.lst"
    batch_size: 100
    new_height: 150
    new_width: 150
    root_folder: "../data/"
  }
}
layer {
  name: "hidden"
  type: "InnerProduct"
  bottom: "data"
  top: "hidden"
  inner_product_param {
    num_output: 1000
    weight_filler {
      type: "xavier"
    }
    bias_filler {
      type: "constant"
    }
  }
}
layer {
  name: "tan"
  type: "TanH"
  bottom: "hidden"
  top: "tan"
}
layer {
  name: "ip"
  type: "InnerProduct"
  bottom: "tan"
  top: "ip"
  inner_product_param {
    num_output: 2
    weight_filler {
      type: "xavier"
    }
    bias_filler {
      type: "constant"
    }
  }
}
layer {
  name: "loss"
  type: "SoftmaxWithLoss"
  bottom: "ip"
  bottom: "label"
  top: "loss"
}
layer {
  name: "accuracy"
  type: "Accuracy"
  bottom: "ip"
  bottom: "label"
  top: "accuracy"
  include {
    phase: TEST
  }
}
I1206 19:46:14.049933  2353 layer_factory.hpp:77] Creating layer gender
I1206 19:46:14.049975  2353 net.cpp:84] Creating Layer gender
I1206 19:46:14.050004  2353 net.cpp:380] gender -> data
I1206 19:46:14.050032  2353 net.cpp:380] gender -> label
I1206 19:46:14.050061  2353 image_data_layer.cpp:38] Opening file ../test.lst
I1206 19:46:14.056638  2353 image_data_layer.cpp:63] A total of 12000 images.
I1206 19:46:14.060051  2353 image_data_layer.cpp:90] output data size: 100,3,150,150
I1206 19:46:14.166080  2353 net.cpp:122] Setting up gender
I1206 19:46:14.166206  2353 net.cpp:129] Top shape: 100 3 150 150 (6750000)
I1206 19:46:14.166235  2353 net.cpp:129] Top shape: 100 (100)
I1206 19:46:14.166265  2353 net.cpp:137] Memory required for data: 27000400
I1206 19:46:14.166288  2353 layer_factory.hpp:77] Creating layer label_gender_1_split
I1206 19:46:14.166936  2353 net.cpp:84] Creating Layer label_gender_1_split
I1206 19:46:14.166977  2353 net.cpp:406] label_gender_1_split <- label
I1206 19:46:14.167004  2353 net.cpp:380] label_gender_1_split -> label_gender_1_split_0
I1206 19:46:14.167071  2353 net.cpp:380] label_gender_1_split -> label_gender_1_split_1
I1206 19:46:14.167181  2353 net.cpp:122] Setting up label_gender_1_split
I1206 19:46:14.167233  2353 net.cpp:129] Top shape: 100 (100)
I1206 19:46:14.167270  2353 net.cpp:129] Top shape: 100 (100)
I1206 19:46:14.167292  2353 net.cpp:137] Memory required for data: 27001200
I1206 19:46:14.167346  2353 layer_factory.hpp:77] Creating layer hidden
I1206 19:46:14.167403  2353 net.cpp:84] Creating Layer hidden
I1206 19:46:14.167433  2353 net.cpp:406] hidden <- data
I1206 19:46:14.167476  2353 net.cpp:380] hidden -> hidden
I1206 19:46:14.920658  2353 net.cpp:122] Setting up hidden
I1206 19:46:14.920796  2353 net.cpp:129] Top shape: 100 1000 (100000)
I1206 19:46:14.920846  2353 net.cpp:137] Memory required for data: 27401200
I1206 19:46:14.920884  2353 layer_factory.hpp:77] Creating layer tan
I1206 19:46:14.920927  2353 net.cpp:84] Creating Layer tan
I1206 19:46:14.920950  2353 net.cpp:406] tan <- hidden
I1206 19:46:14.920977  2353 net.cpp:380] tan -> tan
I1206 19:46:14.921034  2353 net.cpp:122] Setting up tan
I1206 19:46:14.921066  2353 net.cpp:129] Top shape: 100 1000 (100000)
I1206 19:46:14.921088  2353 net.cpp:137] Memory required for data: 27801200
I1206 19:46:14.921109  2353 layer_factory.hpp:77] Creating layer ip
I1206 19:46:14.921144  2353 net.cpp:84] Creating Layer ip
I1206 19:46:14.921166  2353 net.cpp:406] ip <- tan
I1206 19:46:14.921188  2353 net.cpp:380] ip -> ip
I1206 19:46:14.921345  2353 net.cpp:122] Setting up ip
I1206 19:46:14.921422  2353 net.cpp:129] Top shape: 100 2 (200)
I1206 19:46:14.921445  2353 net.cpp:137] Memory required for data: 27802000
I1206 19:46:14.921476  2353 layer_factory.hpp:77] Creating layer ip_ip_0_split
I1206 19:46:14.921504  2353 net.cpp:84] Creating Layer ip_ip_0_split
I1206 19:46:14.921525  2353 net.cpp:406] ip_ip_0_split <- ip
I1206 19:46:14.921546  2353 net.cpp:380] ip_ip_0_split -> ip_ip_0_split_0
I1206 19:46:14.921571  2353 net.cpp:380] ip_ip_0_split -> ip_ip_0_split_1
I1206 19:46:14.921633  2353 net.cpp:122] Setting up ip_ip_0_split
I1206 19:46:14.921665  2353 net.cpp:129] Top shape: 100 2 (200)
I1206 19:46:14.921689  2353 net.cpp:129] Top shape: 100 2 (200)
I1206 19:46:14.921710  2353 net.cpp:137] Memory required for data: 27803600
I1206 19:46:14.921730  2353 layer_factory.hpp:77] Creating layer loss
I1206 19:46:14.921753  2353 net.cpp:84] Creating Layer loss
I1206 19:46:14.921773  2353 net.cpp:406] loss <- ip_ip_0_split_0
I1206 19:46:14.921794  2353 net.cpp:406] loss <- label_gender_1_split_0
I1206 19:46:14.921818  2353 net.cpp:380] loss -> loss
…
