…
I1206 19:48:17.442762  3879 net.cpp:294] The NetState phase (0) differed from the phase (1) specified by a rule in layer accuracy
I1206 19:48:17.443044  3879 net.cpp:51] Initializing net from parameters: 
name: "SimpleFCN"
state {
  phase: TRAIN
  level: 0
  stage: ""
}
layer {
  name: "gender"
  type: "ImageData"
  top: "data"
  top: "label"
  include {
    phase: TRAIN
  }
  transform_param {
    scale: 0.00390625
  }
  image_data_param {
    source: "../train.lst"
    batch_size: 100
    new_height: 150
    new_width: 150
    root_folder: "../data/"
  }
}
layer {
  name: "hidden1"
  type: "InnerProduct"
  bottom: "data"
  top: "hidden1"
  inner_product_param {
    num_output: 400
    weight_filler {
      type: "xavier"
    }
    bias_filler {
      type: "constant"
    }
  }
}
layer {
  name: "relu"
  type: "ReLU"
  bottom: "hidden1"
  top: "relu"
}
layer {
  name: "hidden2"
  type: "InnerProduct"
  bottom: "relu"
  top: "hidden2"
  inner_product_param {
    num_output: 100
    weight_filler {
      type: "xavier"
    }
    bias_filler {
      type: "constant"
    }
  }
}
layer {
  name: "sigm"
  type: "Sigmoid"
  bottom: "hidden2"
  top: "sigm"
}
layer {
  name: "hidden3"
  type: "InnerProduct"
  bottom: "sigm"
  top: "hidden3"
  inner_product_param {
    num_output: 20
    weight_filler {
      type: "xavier"
    }
    bias_filler {
      type: "constant"
    }
  }
}
layer {
  name: "tanh"
  type: "TanH"
  bottom: "hidden3"
  top: "tanh"
}
layer {
  name: "ip"
  type: "InnerProduct"
  bottom: "tanh"
  top: "ip"
  inner_product_param {
    num_output: 2
    weight_filler {
      type: "xavier"
    }
    bias_filler {
      type: "constant"
    }
  }
}
layer {
  name: "loss"
  type: "SoftmaxWithLoss"
  bottom: "ip"
  bottom: "label"
  top: "loss"
}
I1206 19:48:17.446626  3879 layer_factory.hpp:77] Creating layer gender
I1206 19:48:17.449457  3879 net.cpp:84] Creating Layer gender
I1206 19:48:17.450418  3879 net.cpp:380] gender -> data
I1206 19:48:17.452282  3879 net.cpp:380] gender -> label
I1206 19:48:17.454742  3879 image_data_layer.cpp:38] Opening file ../train.lst
I1206 19:48:17.500867  3879 image_data_layer.cpp:63] A total of 47000 images.
I1206 19:48:20.482108  3879 image_data_layer.cpp:90] output data size: 100,3,150,150
I1206 19:48:20.624857  3879 net.cpp:122] Setting up gender
I1206 19:48:20.626319  3879 net.cpp:129] Top shape: 100 3 150 150 (6750000)
I1206 19:48:20.626430  3879 net.cpp:129] Top shape: 100 (100)
I1206 19:48:20.626492  3879 net.cpp:137] Memory required for data: 27000400
I1206 19:48:20.626550  3879 layer_factory.hpp:77] Creating layer hidden1
I1206 19:48:20.627821  3879 net.cpp:84] Creating Layer hidden1
I1206 19:48:20.627910  3879 net.cpp:406] hidden1 <- data
I1206 19:48:20.627991  3879 net.cpp:380] hidden1 -> hidden1
I1206 19:48:21.231243  3879 net.cpp:122] Setting up hidden1
I1206 19:48:21.231447  3879 net.cpp:129] Top shape: 100 400 (40000)
I1206 19:48:21.231513  3879 net.cpp:137] Memory required for data: 27160400
I1206 19:48:21.232659  3879 layer_factory.hpp:77] Creating layer relu
I1206 19:48:21.235951  3879 net.cpp:84] Creating Layer relu
I1206 19:48:21.236042  3879 net.cpp:406] relu <- hidden1
I1206 19:48:21.236109  3879 net.cpp:380] relu -> relu
I1206 19:48:21.238198  3879 net.cpp:122] Setting up relu
I1206 19:48:21.238298  3879 net.cpp:129] Top shape: 100 400 (40000)
I1206 19:48:21.238395  3879 net.cpp:137] Memory required for data: 27320400
I1206 19:48:21.238507  3879 layer_factory.hpp:77] Creating layer hidden2
I1206 19:48:21.238571  3879 net.cpp:84] Creating Layer hidden2
I1206 19:48:21.238625  3879 net.cpp:406] hidden2 <- relu
I1206 19:48:21.238682  3879 net.cpp:380] hidden2 -> hidden2
I1206 19:48:21.240842  3879 net.cpp:122] Setting up hidden2
I1206 19:48:21.240936  3879 net.cpp:129] Top shape: 100 100 (10000)
I1206 19:48:21.240993  3879 net.cpp:137] Memory required for data: 27360400
I1206 19:48:21.241060  3879 layer_factory.hpp:77] Creating layer sigm
I1206 19:48:21.241123  3879 net.cpp:84] Creating Layer sigm
I1206 19:48:21.241178  3879 net.cpp:406] sigm <- hidden2
I1206 19:48:21.241233  3879 net.cpp:380] sigm -> sigm
I1206 19:48:21.242419  3879 net.cpp:122] Setting up sigm
I1206 19:48:21.242522  3879 net.cpp:129] Top shape: 100 100 (10000)
I1206 19:48:21.242580  3879 net.cpp:137] Memory required for data: 27400400
I1206 19:48:21.242631  3879 layer_factory.hpp:77] Creating layer hidden3
I1206 19:48:21.242694  3879 net.cpp:84] Creating Layer hidden3
I1206 19:48:21.242748  3879 net.cpp:406] hidden3 <- sigm
I1206 19:48:21.242805  3879 net.cpp:380] hidden3 -> hidden3
I1206 19:48:21.244257  3879 net.cpp:122] Setting up hidden3
I1206 19:48:21.244349  3879 net.cpp:129] Top shape: 100 20 (2000)
I1206 19:48:21.244405  3879 net.cpp:137] Memory required for data: 27408400
I1206 19:48:21.244491  3879 layer_factory.hpp:77] Creating layer tanh
I1206 19:48:21.244557  3879 net.cpp:84] Creating Layer tanh
I1206 19:48:21.244612  3879 net.cpp:406] tanh <- hidden3
I1206 19:48:21.244669  3879 net.cpp:380] tanh -> tanh
I1206 19:48:21.244773  3879 net.cpp:122] Setting up tanh
I1206 19:48:21.244844  3879 net.cpp:129] Top shape: 100 20 (2000)
I1206 19:48:21.244896  3879 net.cpp:137] Memory required for data: 27416400
I1206 19:48:21.244946  3879 layer_factory.hpp:77] Creating layer ip
I1206 19:48:21.245004  3879 net.cpp:84] Creating Layer ip
I1206 19:48:21.245057  3879 net.cpp:406] ip <- tanh
I1206 19:48:21.245113  3879 net.cpp:380] ip -> ip
I1206 19:48:21.245388  3879 net.cpp:122] Setting up ip
I1206 19:48:21.245476  3879 net.cpp:129] Top shape: 100 2 (200)
I1206 19:48:21.245530  3879 net.cpp:137] Memory required for data: 27417200
I1206 19:48:21.245589  3879 layer_factory.hpp:77] Creating layer loss
I1206 19:48:21.247758  3879 net.cpp:84] Creating Layer loss
I1206 19:48:21.247846  3879 net.cpp:406] loss <- ip
I1206 19:48:21.247905  3879 net.cpp:406] loss <- label
I1206 19:48:21.247964  3879 net.cpp:380] loss -> loss
I1206 19:48:21.252022  3879 layer_factory.hpp:77] Creating layer loss
…
I1206 19:48:21.274474  3879 solver.cpp:172] Creating test net (#0) specified by net file: gender_fcn.prototxt
I1206 19:48:21.274613  3879 net.cpp:294] The NetState phase (1) differed from the phase (0) specified by a rule in layer gender
I1206 19:48:21.274901  3879 net.cpp:51] Initializing net from parameters: 
name: "SimpleFCN"
state {
  phase: TEST
}
layer {
  name: "gender"
  type: "ImageData"
  top: "data"
  top: "label"
  include {
    phase: TEST
  }
  transform_param {
    scale: 0.00390625
  }
  image_data_param {
    source: "../test.lst"
    batch_size: 100
    new_height: 150
    new_width: 150
    root_folder: "../data/"
  }
}
layer {
  name: "hidden1"
  type: "InnerProduct"
  bottom: "data"
  top: "hidden1"
  inner_product_param {
    num_output: 400
    weight_filler {
      type: "xavier"
    }
    bias_filler {
      type: "constant"
    }
  }
}
layer {
  name: "relu"
  type: "ReLU"
  bottom: "hidden1"
  top: "relu"
}
layer {
  name: "hidden2"
  type: "InnerProduct"
  bottom: "relu"
  top: "hidden2"
  inner_product_param {
    num_output: 100
    weight_filler {
      type: "xavier"
    }
    bias_filler {
      type: "constant"
    }
  }
}
layer {
  name: "sigm"
  type: "Sigmoid"
  bottom: "hidden2"
  top: "sigm"
}
layer {
  name: "hidden3"
  type: "InnerProduct"
  bottom: "sigm"
  top: "hidden3"
  inner_product_param {
    num_output: 20
    weight_filler {
      type: "xavier"
    }
    bias_filler {
      type: "constant"
    }
  }
}
layer {
  name: "tanh"
  type: "TanH"
  bottom: "hidden3"
  top: "tanh"
}
layer {
  name: "ip"
  type: "InnerProduct"
  bottom: "tanh"
  top: "ip"
  inner_product_param {
    num_output: 2
    weight_filler {
      type: "xavier"
    }
    bias_filler {
      type: "constant"
    }
  }
}
layer {
  name: "loss"
  type: "SoftmaxWithLoss"
  bottom: "ip"
  bottom: "label"
  top: "loss"
}
layer {
  name: "accuracy"
  type: "Accuracy"
  bottom: "ip"
  bottom: "label"
  top: "accuracy"
  include {
    phase: TEST
  }
}
I1206 19:48:21.275779  3879 layer_factory.hpp:77] Creating layer gender
I1206 19:48:21.275893  3879 net.cpp:84] Creating Layer gender
I1206 19:48:21.275959  3879 net.cpp:380] gender -> data
I1206 19:48:21.276026  3879 net.cpp:380] gender -> label
I1206 19:48:21.276093  3879 image_data_layer.cpp:38] Opening file ../test.lst
I1206 19:48:21.288998  3879 image_data_layer.cpp:63] A total of 12000 images.
I1206 19:48:21.295537  3879 image_data_layer.cpp:90] output data size: 100,3,150,150
I1206 19:48:21.436257  3879 net.cpp:122] Setting up gender
I1206 19:48:21.436492  3879 net.cpp:129] Top shape: 100 3 150 150 (6750000)
I1206 19:48:21.436566  3879 net.cpp:129] Top shape: 100 (100)
I1206 19:48:21.436643  3879 net.cpp:137] Memory required for data: 27000400
I1206 19:48:21.436709  3879 layer_factory.hpp:77] Creating layer label_gender_1_split
I1206 19:48:21.437598  3879 net.cpp:84] Creating Layer label_gender_1_split
I1206 19:48:21.437678  3879 net.cpp:406] label_gender_1_split <- label
I1206 19:48:21.437752  3879 net.cpp:380] label_gender_1_split -> label_gender_1_split_0
I1206 19:48:21.437822  3879 net.cpp:380] label_gender_1_split -> label_gender_1_split_1
I1206 19:48:21.438805  3879 net.cpp:122] Setting up label_gender_1_split
I1206 19:48:21.438946  3879 net.cpp:129] Top shape: 100 (100)
I1206 19:48:21.439035  3879 net.cpp:129] Top shape: 100 (100)
I1206 19:48:21.439090  3879 net.cpp:137] Memory required for data: 27001200
I1206 19:48:21.439141  3879 layer_factory.hpp:77] Creating layer hidden1
I1206 19:48:21.439203  3879 net.cpp:84] Creating Layer hidden1
I1206 19:48:21.439254  3879 net.cpp:406] hidden1 <- data
I1206 19:48:21.439311  3879 net.cpp:380] hidden1 -> hidden1
I1206 19:48:22.057464  3879 net.cpp:122] Setting up hidden1
I1206 19:48:22.057621  3879 net.cpp:129] Top shape: 100 400 (40000)
I1206 19:48:22.057683  3879 net.cpp:137] Memory required for data: 27161200
I1206 19:48:22.057770  3879 layer_factory.hpp:77] Creating layer relu
I1206 19:48:22.057848  3879 net.cpp:84] Creating Layer relu
I1206 19:48:22.057910  3879 net.cpp:406] relu <- hidden1
I1206 19:48:22.057978  3879 net.cpp:380] relu -> relu
I1206 19:48:22.058112  3879 net.cpp:122] Setting up relu
I1206 19:48:22.058199  3879 net.cpp:129] Top shape: 100 400 (40000)
I1206 19:48:22.058264  3879 net.cpp:137] Memory required for data: 27321200
I1206 19:48:22.058321  3879 layer_factory.hpp:77] Creating layer hidden2
I1206 19:48:22.058383  3879 net.cpp:84] Creating Layer hidden2
I1206 19:48:22.058498  3879 net.cpp:406] hidden2 <- relu
I1206 19:48:22.058590  3879 net.cpp:380] hidden2 -> hidden2
I1206 19:48:22.059664  3879 net.cpp:122] Setting up hidden2
I1206 19:48:22.059762  3879 net.cpp:129] Top shape: 100 100 (10000)
I1206 19:48:22.059821  3879 net.cpp:137] Memory required for data: 27361200
I1206 19:48:22.059888  3879 layer_factory.hpp:77] Creating layer sigm
I1206 19:48:22.059948  3879 net.cpp:84] Creating Layer sigm
I1206 19:48:22.060015  3879 net.cpp:406] sigm <- hidden2
I1206 19:48:22.060076  3879 net.cpp:380] sigm -> sigm
I1206 19:48:22.060185  3879 net.cpp:122] Setting up sigm
I1206 19:48:22.060261  3879 net.cpp:129] Top shape: 100 100 (10000)
I1206 19:48:22.060313  3879 net.cpp:137] Memory required for data: 27401200
I1206 19:48:22.060364  3879 layer_factory.hpp:77] Creating layer hidden3
I1206 19:48:22.060441  3879 net.cpp:84] Creating Layer hidden3
I1206 19:48:22.060516  3879 net.cpp:406] hidden3 <- sigm
I1206 19:48:22.060581  3879 net.cpp:380] hidden3 -> hidden3
I1206 19:48:22.061012  3879 net.cpp:122] Setting up hidden3
I1206 19:48:22.061096  3879 net.cpp:129] Top shape: 100 20 (2000)
I1206 19:48:22.061166  3879 net.cpp:137] Memory required for data: 27409200
I1206 19:48:22.061245  3879 layer_factory.hpp:77] Creating layer tanh
I1206 19:48:22.061317  3879 net.cpp:84] Creating Layer tanh
I1206 19:48:22.061383  3879 net.cpp:406] tanh <- hidden3
I1206 19:48:22.061465  3879 net.cpp:380] tanh -> tanh
I1206 19:48:22.061573  3879 net.cpp:122] Setting up tanh
I1206 19:48:22.061643  3879 net.cpp:129] Top shape: 100 20 (2000)
I1206 19:48:22.061694  3879 net.cpp:137] Memory required for data: 27417200
I1206 19:48:22.061743  3879 layer_factory.hpp:77] Creating layer ip
I1206 19:48:22.061803  3879 net.cpp:84] Creating Layer ip
I1206 19:48:22.061857  3879 net.cpp:406] ip <- tanh
I1206 19:48:22.061914  3879 net.cpp:380] ip -> ip
I1206 19:48:22.062203  3879 net.cpp:122] Setting up ip
I1206 19:48:22.062286  3879 net.cpp:129] Top shape: 100 2 (200)
I1206 19:48:22.062340  3879 net.cpp:137] Memory required for data: 27418000
I1206 19:48:22.062397  3879 layer_factory.hpp:77] Creating layer ip_ip_0_split
I1206 19:48:22.062500  3879 net.cpp:84] Creating Layer ip_ip_0_split
I1206 19:48:22.062594  3879 net.cpp:406] ip_ip_0_split <- ip
I1206 19:48:22.062680  3879 net.cpp:380] ip_ip_0_split -> ip_ip_0_split_0
I1206 19:48:22.062754  3879 net.cpp:380] ip_ip_0_split -> ip_ip_0_split_1
I1206 19:48:22.062898  3879 net.cpp:122] Setting up ip_ip_0_split
I1206 19:48:22.062975  3879 net.cpp:129] Top shape: 100 2 (200)
I1206 19:48:22.063060  3879 net.cpp:129] Top shape: 100 2 (200)
I1206 19:48:22.063115  3879 net.cpp:137] Memory required for data: 27419600
I1206 19:48:22.063164  3879 layer_factory.hpp:77] Creating layer loss
I1206 19:48:22.063222  3879 net.cpp:84] Creating Layer loss
I1206 19:48:22.063284  3879 net.cpp:406] loss <- ip_ip_0_split_0
I1206 19:48:22.063338  3879 net.cpp:406] loss <- label_gender_1_split_0
I1206 19:48:22.063395  3879 net.cpp:380] loss -> loss
…
