…
I1212 20:54:13.834898 19904 net.cpp:294] The NetState phase (0) differed from the phase (1) specified by a rule in layer accuracy
I1212 20:54:13.835686 19904 net.cpp:51] Initializing net from parameters: 
name: "FaceNetCCN"
state {
  phase: TRAIN
  level: 0
  stage: ""
}
layer {
  name: "gender"
  type: "ImageData"
  top: "data"
  top: "label"
  include {
    phase: TRAIN
  }
  transform_param {
    scale: 0.00390625
  }
  image_data_param {
    source: "../../train.lst"
    batch_size: 1
    new_height: 150
    new_width: 150
    is_color: true
    root_folder: "../../data/"
  }
}
layer {
  name: "conv1"
  type: "Convolution"
  bottom: "data"
  top: "conv1"
  param {
    lr_mult: 1
    decay_mult: 1
  }
  param {
    lr_mult: 2
    decay_mult: 0
  }
  convolution_param {
    num_output: 3
    pad: 3
    kernel_size: 7
    stride: 2
    weight_filler {
      type: "gaussian"
      std: 0.01
    }
    bias_filler {
      type: "constant"
      value: 0.1
    }
  }
}
layer {
  name: "pool1"
  type: "Pooling"
  bottom: "conv1"
  top: "pool1"
  pooling_param {
    pool: MAX
    kernel_size: 3
    stride: 2
    pad: 1
  }
}
layer {
  name: "relu1"
  type: "ReLU"
  bottom: "pool1"
  top: "relu1"
}
layer {
  name: "conv2a"
  type: "Convolution"
  bottom: "relu1"
  top: "conv2a"
  param {
    lr_mult: 1
    decay_mult: 1
  }
  param {
    lr_mult: 2
    decay_mult: 0
  }
  convolution_param {
    num_output: 64
    kernel_size: 1
    stride: 1
    weight_filler {
      type: "gaussian"
      std: 0.01
    }
    bias_filler {
      type: "constant"
      value: 0.1
    }
  }
}
layer {
  name: "conv2"
  type: "Convolution"
  bottom: "conv2a"
  top: "conv2"
  param {
    lr_mult: 1
    decay_mult: 1
  }
  param {
    lr_mult: 2
    decay_mult: 0
  }
  convolution_param {
    num_output: 64
    pad: 1
    kernel_size: 3
    stride: 1
    weight_filler {
      type: "gaussian"
      std: 0.01
    }
    bias_filler {
      type: "constant"
      value: 0.1
    }
  }
}
layer {
  name: "pool2"
  type: "Pooling"
  bottom: "conv2"
  top: "pool2"
  pooling_param {
    pool: MAX
    kernel_size: 3
    stride: 2
    pad: 1
  }
}
layer {
  name: "relu2"
  type: "ReLU"
  bottom: "pool2"
  top: "relu2"
}
layer {
  name: "conv3a"
  type: "Convolution"
  bottom: "relu2"
  top: "conv3a"
  param {
    lr_mult: 1
    decay_mult: 1
  }
  param {
    lr_mult: 2
    decay_mult: 0
  }
  convolution_param {
    num_output: 192
    kernel_size: 1
    stride: 1
    weight_filler {
      type: "gaussian"
      std: 0.01
    }
    bias_filler {
      type: "constant"
      value: 0.1
    }
  }
}
layer {
  name: "conv3"
  type: "Convolution"
  bottom: "conv3a"
  top: "conv3"
  param {
    lr_mult: 1
    decay_mult: 1
  }
  param {
    lr_mult: 2
    decay_mult: 0
  }
  convolution_param {
    num_output: 192
    pad: 3
    kernel_size: 3
    stride: 1
    weight_filler {
      type: "gaussian"
      std: 0.01
    }
    bias_filler {
      type: "constant"
      value: 0.1
    }
  }
}
layer {
  name: "pool3"
  type: "Pooling"
  bottom: "conv3"
  top: "pool3"
  pooling_param {
    pool: MAX
    kernel_size: 3
    stride: 2
    pad: 1
  }
}
layer {
  name: "relu3"
  type: "ReLU"
  bottom: "pool3"
  top: "relu3"
}
layer {
  name: "conv4a"
  type: "Convolution"
  bottom: "relu3"
  top: "conv4a"
  param {
    lr_mult: 1
    decay_mult: 1
  }
  param {
    lr_mult: 2
    decay_mult: 0
  }
  convolution_param {
    num_output: 384
    kernel_size: 1
    stride: 1
    weight_filler {
      type: "gaussian"
      std: 0.01
    }
    bias_filler {
      type: "constant"
      value: 0.1
    }
  }
}
layer {
  name: "conv4"
  type: "Convolution"
  bottom: "conv4a"
  top: "conv4"
  param {
    lr_mult: 1
    decay_mult: 1
  }
  param {
    lr_mult: 2
    decay_mult: 0
  }
  convolution_param {
    num_output: 384
    pad: 1
    kernel_size: 3
    stride: 1
    weight_filler {
      type: "gaussian"
      std: 0.01
    }
    bias_filler {
      type: "constant"
      value: 0.1
    }
  }
}
layer {
  name: "conv5a"
  type: "Convolution"
  bottom: "conv4"
  top: "conv5a"
  param {
    lr_mult: 1
    decay_mult: 1
  }
  param {
    lr_mult: 2
    decay_mult: 0
  }
  convolution_param {
    num_output: 256
    kernel_size: 1
    stride: 1
    weight_filler {
      type: "gaussian"
      std: 0.01
    }
    bias_filler {
      type: "constant"
      value: 0.1
    }
  }
}
layer {
  name: "conv5"
  type: "Convolution"
  bottom: "conv5a"
  top: "conv5"
  param {
    lr_mult: 1
    decay_mult: 1
  }
  param {
    lr_mult: 2
    decay_mult: 0
  }
  convolution_param {
    num_output: 256
    pad: 1
    kernel_size: 3
    stride: 1
    weight_filler {
      type: "gaussian"
      std: 0.01
    }
    bias_filler {
      type: "constant"
      value: 0.1
    }
  }
}
layer {
  name: "conv6a"
  type: "Convolution"
  bottom: "conv5"
  top: "conv6a"
  param {
    lr_mult: 1
    decay_mult: 1
  }
  param {
    lr_mult: 2
    decay_mult: 0
  }
  convolution_param {
    num_output: 256
    kernel_size: 1
    stride: 1
    weight_filler {
      type: "gaussian"
      std: 0.01
    }
    bias_filler {
      type: "constant"
      value: 0.1
    }
  }
}
layer {
  name: "conv6"
  type: "Convolution"
  bottom: "conv6a"
  top: "conv6"
  param {
    lr_mult: 1
    decay_mult: 1
  }
  param {
    lr_mult: 2
    decay_mult: 0
  }
  convolution_param {
    num_output: 256
    pad: 1
    kernel_size: 3
    stride: 1
    weight_filler {
      type: "gaussian"
      std: 0.01
    }
    bias_filler {
      type: "constant"
      value: 0.1
    }
  }
}
layer {
  name: "pool4"
  type: "Pooling"
  bottom: "conv6"
  top: "pool4"
  pooling_param {
    pool: MAX
    kernel_size: 3
    stride: 2
  }
}
layer {
  name: "relu4"
  type: "ReLU"
  bottom: "pool4"
  top: "relu4"
}
layer {
  name: "fc1"
  type: "InnerProduct"
  bottom: "relu4"
  top: "fc1"
  param {
    lr_mult: 1
    decay_mult: 1
  }
  param {
    lr_mult: 2
    decay_mult: 0
  }
  inner_product_param {
    num_output: 128
    weight_filler {
      type: "gaussian"
      std: 0.01
    }
    bias_filler {
      type: "constant"
      value: 0
    }
  }
}
layer {
  name: "relu5"
  type: "ReLU"
  bottom: "fc1"
  top: "relu5"
}
layer {
  name: "fc2"
  type: "InnerProduct"
  bottom: "relu5"
  top: "fc2"
  param {
    lr_mult: 1
    decay_mult: 1
  }
  param {
    lr_mult: 2
    decay_mult: 0
  }
  inner_product_param {
    num_output: 2
    weight_filler {
      type: "gaussian"
      std: 0.01
    }
    bias_filler {
      type: "constant"
      value: 0
    }
  }
}
layer {
  name: "loss"
  type: "SoftmaxWithLoss"
  bottom: "fc2"
  bottom: "label"
  top: "loss"
}
I1212 20:54:13.836330 19904 layer_factory.hpp:77] Creating layer gender
I1212 20:54:13.836668 19904 net.cpp:84] Creating Layer gender
I1212 20:54:13.836812 19904 net.cpp:380] gender -> data
I1212 20:54:13.837054 19904 net.cpp:380] gender -> label
I1212 20:54:13.837308 19904 image_data_layer.cpp:38] Opening file ../../train.lst
I1212 20:54:14.167158 19904 image_data_layer.cpp:63] A total of 47000 images.
I1212 20:54:29.316249 19904 image_data_layer.cpp:90] output data size: 1,3,150,150
I1212 20:54:29.397773 19904 net.cpp:122] Setting up gender
I1212 20:54:29.415942 19904 net.cpp:129] Top shape: 1 3 150 150 (67500)
I1212 20:54:29.416024 19904 net.cpp:129] Top shape: 1 (1)
I1212 20:54:29.416085 19904 net.cpp:137] Memory required for data: 270004
I1212 20:54:29.416193 19904 layer_factory.hpp:77] Creating layer conv1
I1212 20:54:29.416483 19904 net.cpp:84] Creating Layer conv1
I1212 20:54:29.416566 19904 net.cpp:406] conv1 <- data
I1212 20:54:29.416668 19904 net.cpp:380] conv1 -> conv1
I1212 20:54:29.455304 19904 net.cpp:122] Setting up conv1
I1212 20:54:29.455410 19904 net.cpp:129] Top shape: 1 3 75 75 (16875)
I1212 20:54:29.455478 19904 net.cpp:137] Memory required for data: 337504
I1212 20:54:29.455637 19904 layer_factory.hpp:77] Creating layer pool1
I1212 20:54:29.455785 19904 net.cpp:84] Creating Layer pool1
I1212 20:54:29.455842 19904 net.cpp:406] pool1 <- conv1
I1212 20:54:29.472939 19904 net.cpp:380] pool1 -> pool1
I1212 20:54:29.473162 19904 net.cpp:122] Setting up pool1
I1212 20:54:29.473251 19904 net.cpp:129] Top shape: 1 3 38 38 (4332)
I1212 20:54:29.473307 19904 net.cpp:137] Memory required for data: 354832
I1212 20:54:29.473383 19904 layer_factory.hpp:77] Creating layer relu1
I1212 20:54:29.473465 19904 net.cpp:84] Creating Layer relu1
I1212 20:54:29.473531 19904 net.cpp:406] relu1 <- pool1
I1212 20:54:29.473610 19904 net.cpp:380] relu1 -> relu1
I1212 20:54:29.473752 19904 net.cpp:122] Setting up relu1
I1212 20:54:29.473839 19904 net.cpp:129] Top shape: 1 3 38 38 (4332)
I1212 20:54:29.473901 19904 net.cpp:137] Memory required for data: 372160
I1212 20:54:29.473968 19904 layer_factory.hpp:77] Creating layer conv2a
I1212 20:54:29.474069 19904 net.cpp:84] Creating Layer conv2a
I1212 20:54:29.474134 19904 net.cpp:406] conv2a <- relu1
I1212 20:54:29.474216 19904 net.cpp:380] conv2a -> conv2a
I1212 20:54:29.497582 19904 net.cpp:122] Setting up conv2a
I1212 20:54:29.497676 19904 net.cpp:129] Top shape: 1 64 38 38 (92416)
I1212 20:54:29.497750 19904 net.cpp:137] Memory required for data: 741824
I1212 20:54:29.497844 19904 layer_factory.hpp:77] Creating layer conv2
I1212 20:54:29.497941 19904 net.cpp:84] Creating Layer conv2
I1212 20:54:29.498010 19904 net.cpp:406] conv2 <- conv2a
I1212 20:54:29.498077 19904 net.cpp:380] conv2 -> conv2
I1212 20:54:29.520877 19904 net.cpp:122] Setting up conv2
I1212 20:54:29.520974 19904 net.cpp:129] Top shape: 1 64 38 38 (92416)
I1212 20:54:29.521049 19904 net.cpp:137] Memory required for data: 1111488
I1212 20:54:29.521122 19904 layer_factory.hpp:77] Creating layer pool2
I1212 20:54:29.521224 19904 net.cpp:84] Creating Layer pool2
I1212 20:54:29.521281 19904 net.cpp:406] pool2 <- conv2
I1212 20:54:29.521354 19904 net.cpp:380] pool2 -> pool2
I1212 20:54:29.521507 19904 net.cpp:122] Setting up pool2
I1212 20:54:29.521597 19904 net.cpp:129] Top shape: 1 64 20 20 (25600)
I1212 20:54:29.521654 19904 net.cpp:137] Memory required for data: 1213888
I1212 20:54:29.521718 19904 layer_factory.hpp:77] Creating layer relu2
I1212 20:54:29.521806 19904 net.cpp:84] Creating Layer relu2
I1212 20:54:29.521872 19904 net.cpp:406] relu2 <- pool2
I1212 20:54:29.521955 19904 net.cpp:380] relu2 -> relu2
I1212 20:54:29.522070 19904 net.cpp:122] Setting up relu2
I1212 20:54:29.522141 19904 net.cpp:129] Top shape: 1 64 20 20 (25600)
I1212 20:54:29.522212 19904 net.cpp:137] Memory required for data: 1316288
I1212 20:54:29.522272 19904 layer_factory.hpp:77] Creating layer conv3a
I1212 20:54:29.522369 19904 net.cpp:84] Creating Layer conv3a
I1212 20:54:29.522424 19904 net.cpp:406] conv3a <- relu2
I1212 20:54:29.522505 19904 net.cpp:380] conv3a -> conv3a
I1212 20:54:29.544273 19904 net.cpp:122] Setting up conv3a
I1212 20:54:29.544368 19904 net.cpp:129] Top shape: 1 192 20 20 (76800)
I1212 20:54:29.544432 19904 net.cpp:137] Memory required for data: 1623488
I1212 20:54:29.544526 19904 layer_factory.hpp:77] Creating layer conv3
I1212 20:54:29.544628 19904 net.cpp:84] Creating Layer conv3
I1212 20:54:29.544693 19904 net.cpp:406] conv3 <- conv3a
I1212 20:54:29.544782 19904 net.cpp:380] conv3 -> conv3
I1212 20:54:29.570917 19904 net.cpp:122] Setting up conv3
I1212 20:54:29.571024 19904 net.cpp:129] Top shape: 1 192 24 24 (110592)
I1212 20:54:29.571097 19904 net.cpp:137] Memory required for data: 2065856
I1212 20:54:29.571182 19904 layer_factory.hpp:77] Creating layer pool3
I1212 20:54:29.571251 19904 net.cpp:84] Creating Layer pool3
I1212 20:54:29.571370 19904 net.cpp:406] pool3 <- conv3
I1212 20:54:29.571473 19904 net.cpp:380] pool3 -> pool3
I1212 20:54:29.571624 19904 net.cpp:122] Setting up pool3
I1212 20:54:29.571696 19904 net.cpp:129] Top shape: 1 192 13 13 (32448)
I1212 20:54:29.571758 19904 net.cpp:137] Memory required for data: 2195648
I1212 20:54:29.571820 19904 layer_factory.hpp:77] Creating layer relu3
I1212 20:54:29.571887 19904 net.cpp:84] Creating Layer relu3
I1212 20:54:29.626968 19904 net.cpp:406] relu3 <- pool3
I1212 20:54:29.627053 19904 net.cpp:380] relu3 -> relu3
I1212 20:54:29.627176 19904 net.cpp:122] Setting up relu3
I1212 20:54:29.627264 19904 net.cpp:129] Top shape: 1 192 13 13 (32448)
I1212 20:54:29.627327 19904 net.cpp:137] Memory required for data: 2325440
I1212 20:54:29.627383 19904 layer_factory.hpp:77] Creating layer conv4a
I1212 20:54:29.627492 19904 net.cpp:84] Creating Layer conv4a
I1212 20:54:29.627552 19904 net.cpp:406] conv4a <- relu3
I1212 20:54:29.627637 19904 net.cpp:380] conv4a -> conv4a
I1212 20:54:29.629601 19904 net.cpp:122] Setting up conv4a
I1212 20:54:29.629685 19904 net.cpp:129] Top shape: 1 384 13 13 (64896)
I1212 20:54:29.629753 19904 net.cpp:137] Memory required for data: 2585024
I1212 20:54:29.629848 19904 layer_factory.hpp:77] Creating layer conv4
I1212 20:54:29.649966 19904 net.cpp:84] Creating Layer conv4
I1212 20:54:29.650053 19904 net.cpp:406] conv4 <- conv4a
I1212 20:54:29.650141 19904 net.cpp:380] conv4 -> conv4
I1212 20:54:29.886293 19904 net.cpp:122] Setting up conv4
I1212 20:54:29.886430 19904 net.cpp:129] Top shape: 1 384 13 13 (64896)
I1212 20:54:29.886503 19904 net.cpp:137] Memory required for data: 2844608
I1212 20:54:29.886576 19904 layer_factory.hpp:77] Creating layer conv5a
I1212 20:54:29.886656 19904 net.cpp:84] Creating Layer conv5a
I1212 20:54:29.886714 19904 net.cpp:406] conv5a <- conv4
I1212 20:54:29.886772 19904 net.cpp:380] conv5a -> conv5a
I1212 20:54:29.889111 19904 net.cpp:122] Setting up conv5a
I1212 20:54:29.889196 19904 net.cpp:129] Top shape: 1 256 13 13 (43264)
I1212 20:54:29.889250 19904 net.cpp:137] Memory required for data: 3017664
I1212 20:54:29.889322 19904 layer_factory.hpp:77] Creating layer conv5
I1212 20:54:29.889402 19904 net.cpp:84] Creating Layer conv5
I1212 20:54:29.889466 19904 net.cpp:406] conv5 <- conv5a
I1212 20:54:29.889526 19904 net.cpp:380] conv5 -> conv5
I1212 20:54:29.969238 19904 net.cpp:122] Setting up conv5
I1212 20:54:29.969318 19904 net.cpp:129] Top shape: 1 256 13 13 (43264)
I1212 20:54:29.969378 19904 net.cpp:137] Memory required for data: 3190720
I1212 20:54:29.969471 19904 layer_factory.hpp:77] Creating layer conv6a
I1212 20:54:29.969549 19904 net.cpp:84] Creating Layer conv6a
I1212 20:54:29.969601 19904 net.cpp:406] conv6a <- conv5
I1212 20:54:29.969663 19904 net.cpp:380] conv6a -> conv6a
I1212 20:54:29.971369 19904 net.cpp:122] Setting up conv6a
I1212 20:54:29.971443 19904 net.cpp:129] Top shape: 1 256 13 13 (43264)
I1212 20:54:29.971513 19904 net.cpp:137] Memory required for data: 3363776
I1212 20:54:29.971571 19904 layer_factory.hpp:77] Creating layer conv6
I1212 20:54:29.971638 19904 net.cpp:84] Creating Layer conv6
I1212 20:54:29.971688 19904 net.cpp:406] conv6 <- conv6a
I1212 20:54:29.971755 19904 net.cpp:380] conv6 -> conv6
I1212 20:54:30.043535 19904 net.cpp:122] Setting up conv6
I1212 20:54:30.043624 19904 net.cpp:129] Top shape: 1 256 13 13 (43264)
I1212 20:54:30.043699 19904 net.cpp:137] Memory required for data: 3536832
I1212 20:54:30.043771 19904 layer_factory.hpp:77] Creating layer pool4
I1212 20:54:30.043838 19904 net.cpp:84] Creating Layer pool4
I1212 20:54:30.043890 19904 net.cpp:406] pool4 <- conv6
I1212 20:54:30.043951 19904 net.cpp:380] pool4 -> pool4
I1212 20:54:30.044077 19904 net.cpp:122] Setting up pool4
I1212 20:54:30.044152 19904 net.cpp:129] Top shape: 1 256 6 6 (9216)
I1212 20:54:30.044205 19904 net.cpp:137] Memory required for data: 3573696
I1212 20:54:30.044255 19904 layer_factory.hpp:77] Creating layer relu4
I1212 20:54:30.044317 19904 net.cpp:84] Creating Layer relu4
I1212 20:54:30.044407 19904 net.cpp:406] relu4 <- pool4
I1212 20:54:30.044471 19904 net.cpp:380] relu4 -> relu4
I1212 20:54:30.044567 19904 net.cpp:122] Setting up relu4
I1212 20:54:30.044637 19904 net.cpp:129] Top shape: 1 256 6 6 (9216)
I1212 20:54:30.044699 19904 net.cpp:137] Memory required for data: 3610560
I1212 20:54:30.044746 19904 layer_factory.hpp:77] Creating layer fc1
I1212 20:54:30.044847 19904 net.cpp:84] Creating Layer fc1
I1212 20:54:30.044904 19904 net.cpp:406] fc1 <- relu4
I1212 20:54:30.067452 19904 net.cpp:380] fc1 -> fc1
I1212 20:54:30.195096 19904 net.cpp:122] Setting up fc1
I1212 20:54:30.195184 19904 net.cpp:129] Top shape: 1 128 (128)
I1212 20:54:30.195246 19904 net.cpp:137] Memory required for data: 3611072
I1212 20:54:30.195312 19904 layer_factory.hpp:77] Creating layer relu5
I1212 20:54:30.195379 19904 net.cpp:84] Creating Layer relu5
I1212 20:54:30.195430 19904 net.cpp:406] relu5 <- fc1
I1212 20:54:30.195490 19904 net.cpp:380] relu5 -> relu5
I1212 20:54:30.195587 19904 net.cpp:122] Setting up relu5
I1212 20:54:30.195653 19904 net.cpp:129] Top shape: 1 128 (128)
I1212 20:54:30.195708 19904 net.cpp:137] Memory required for data: 3611584
I1212 20:54:30.195760 19904 layer_factory.hpp:77] Creating layer fc2
I1212 20:54:30.195827 19904 net.cpp:84] Creating Layer fc2
I1212 20:54:30.195888 19904 net.cpp:406] fc2 <- relu5
I1212 20:54:30.195946 19904 net.cpp:380] fc2 -> fc2
I1212 20:54:30.196192 19904 net.cpp:122] Setting up fc2
I1212 20:54:30.196254 19904 net.cpp:129] Top shape: 1 2 (2)
I1212 20:54:30.196315 19904 net.cpp:137] Memory required for data: 3611592
I1212 20:54:30.196375 19904 layer_factory.hpp:77] Creating layer loss
I1212 20:54:30.196483 19904 net.cpp:84] Creating Layer loss
I1212 20:54:30.196537 19904 net.cpp:406] loss <- fc2
I1212 20:54:30.196597 19904 net.cpp:406] loss <- label
I1212 20:54:30.196663 19904 net.cpp:380] loss -> loss
I1212 20:54:30.196883 19904 layer_factory.hpp:77] Creating layer loss
…
I1212 20:54:30.244243 19904 net.cpp:294] The NetState phase (1) differed from the phase (0) specified by a rule in layer gender
I1212 20:54:30.245045 19904 net.cpp:51] Initializing net from parameters: 
name: "FaceNetCCN"
state {
  phase: TEST
}
layer {
  name: "gender"
  type: "ImageData"
  top: "data"
  top: "label"
  include {
    phase: TEST
  }
  transform_param {
    scale: 0.00390625
  }
  image_data_param {
    source: "../../test.lst"
    batch_size: 1
    new_height: 150
    new_width: 150
    is_color: true
    root_folder: "../../data/"
  }
}
layer {
  name: "conv1"
  type: "Convolution"
  bottom: "data"
  top: "conv1"
  param {
    lr_mult: 1
    decay_mult: 1
  }
  param {
    lr_mult: 2
    decay_mult: 0
  }
  convolution_param {
    num_output: 3
    pad: 3
    kernel_size: 7
    stride: 2
    weight_filler {
      type: "gaussian"
      std: 0.01
    }
    bias_filler {
      type: "constant"
      value: 0.1
    }
  }
}
layer {
  name: "pool1"
  type: "Pooling"
  bottom: "conv1"
  top: "pool1"
  pooling_param {
    pool: MAX
    kernel_size: 3
    stride: 2
    pad: 1
  }
}
layer {
  name: "relu1"
  type: "ReLU"
  bottom: "pool1"
  top: "relu1"
}
layer {
  name: "conv2a"
  type: "Convolution"
  bottom: "relu1"
  top: "conv2a"
  param {
    lr_mult: 1
    decay_mult: 1
  }
  param {
    lr_mult: 2
    decay_mult: 0
  }
  convolution_param {
    num_output: 64
    kernel_size: 1
    stride: 1
    weight_filler {
      type: "gaussian"
      std: 0.01
    }
    bias_filler {
      type: "constant"
      value: 0.1
    }
  }
}
layer {
  name: "conv2"
  type: "Convolution"
  bottom: "conv2a"
  top: "conv2"
  param {
    lr_mult: 1
    decay_mult: 1
  }
  param {
    lr_mult: 2
    decay_mult: 0
  }
  convolution_param {
    num_output: 64
    pad: 1
    kernel_size: 3
    stride: 1
    weight_filler {
      type: "gaussian"
      std: 0.01
    }
    bias_filler {
      type: "constant"
      value: 0.1
    }
  }
}
layer {
  name: "pool2"
  type: "Pooling"
  bottom: "conv2"
  top: "pool2"
  pooling_param {
    pool: MAX
    kernel_size: 3
    stride: 2
    pad: 1
  }
}
layer {
  name: "relu2"
  type: "ReLU"
  bottom: "pool2"
  top: "relu2"
}
layer {
  name: "conv3a"
  type: "Convolution"
  bottom: "relu2"
  top: "conv3a"
  param {
    lr_mult: 1
    decay_mult: 1
  }
  param {
    lr_mult: 2
    decay_mult: 0
  }
  convolution_param {
    num_output: 192
    kernel_size: 1
    stride: 1
    weight_filler {
      type: "gaussian"
      std: 0.01
    }
    bias_filler {
      type: "constant"
      value: 0.1
    }
  }
}
layer {
  name: "conv3"
  type: "Convolution"
  bottom: "conv3a"
  top: "conv3"
  param {
    lr_mult: 1
    decay_mult: 1
  }
  param {
    lr_mult: 2
    decay_mult: 0
  }
  convolution_param {
    num_output: 192
    pad: 3
    kernel_size: 3
    stride: 1
    weight_filler {
      type: "gaussian"
      std: 0.01
    }
    bias_filler {
      type: "constant"
      value: 0.1
    }
  }
}
layer {
  name: "pool3"
  type: "Pooling"
  bottom: "conv3"
  top: "pool3"
  pooling_param {
    pool: MAX
    kernel_size: 3
    stride: 2
    pad: 1
  }
}
layer {
  name: "relu3"
  type: "ReLU"
  bottom: "pool3"
  top: "relu3"
}
layer {
  name: "conv4a"
  type: "Convolution"
  bottom: "relu3"
  top: "conv4a"
  param {
    lr_mult: 1
    decay_mult: 1
  }
  param {
    lr_mult: 2
    decay_mult: 0
  }
  convolution_param {
    num_output: 384
    kernel_size: 1
    stride: 1
    weight_filler {
      type: "gaussian"
      std: 0.01
    }
    bias_filler {
      type: "constant"
      value: 0.1
    }
  }
}
layer {
  name: "conv4"
  type: "Convolution"
  bottom: "conv4a"
  top: "conv4"
  param {
    lr_mult: 1
    decay_mult: 1
  }
  param {
    lr_mult: 2
    decay_mult: 0
  }
  convolution_param {
    num_output: 384
    pad: 1
    kernel_size: 3
    stride: 1
    weight_filler {
      type: "gaussian"
      std: 0.01
    }
    bias_filler {
      type: "constant"
      value: 0.1
    }
  }
}
layer {
  name: "conv5a"
  type: "Convolution"
  bottom: "conv4"
  top: "conv5a"
  param {
    lr_mult: 1
    decay_mult: 1
  }
  param {
    lr_mult: 2
    decay_mult: 0
  }
  convolution_param {
    num_output: 256
    kernel_size: 1
    stride: 1
    weight_filler {
      type: "gaussian"
      std: 0.01
    }
    bias_filler {
      type: "constant"
      value: 0.1
    }
  }
}
layer {
  name: "conv5"
  type: "Convolution"
  bottom: "conv5a"
  top: "conv5"
  param {
    lr_mult: 1
    decay_mult: 1
  }
  param {
    lr_mult: 2
    decay_mult: 0
  }
  convolution_param {
    num_output: 256
    pad: 1
    kernel_size: 3
    stride: 1
    weight_filler {
      type: "gaussian"
      std: 0.01
    }
    bias_filler {
      type: "constant"
      value: 0.1
    }
  }
}
layer {
  name: "conv6a"
  type: "Convolution"
  bottom: "conv5"
  top: "conv6a"
  param {
    lr_mult: 1
    decay_mult: 1
  }
  param {
    lr_mult: 2
    decay_mult: 0
  }
  convolution_param {
    num_output: 256
    kernel_size: 1
    stride: 1
    weight_filler {
      type: "gaussian"
      std: 0.01
    }
    bias_filler {
      type: "constant"
      value: 0.1
    }
  }
}
layer {
  name: "conv6"
  type: "Convolution"
  bottom: "conv6a"
  top: "conv6"
  param {
    lr_mult: 1
    decay_mult: 1
  }
  param {
    lr_mult: 2
    decay_mult: 0
  }
  convolution_param {
    num_output: 256
    pad: 1
    kernel_size: 3
    stride: 1
    weight_filler {
      type: "gaussian"
      std: 0.01
    }
    bias_filler {
      type: "constant"
      value: 0.1
    }
  }
}
layer {
  name: "pool4"
  type: "Pooling"
  bottom: "conv6"
  top: "pool4"
  pooling_param {
    pool: MAX
    kernel_size: 3
    stride: 2
  }
}
layer {
  name: "relu4"
  type: "ReLU"
  bottom: "pool4"
  top: "relu4"
}
layer {
  name: "fc1"
  type: "InnerProduct"
  bottom: "relu4"
  top: "fc1"
  param {
    lr_mult: 1
    decay_mult: 1
  }
  param {
    lr_mult: 2
    decay_mult: 0
  }
  inner_product_param {
    num_output: 128
    weight_filler {
      type: "gaussian"
      std: 0.01
    }
    bias_filler {
      type: "constant"
      value: 0
    }
  }
}
layer {
  name: "relu5"
  type: "ReLU"
  bottom: "fc1"
  top: "relu5"
}
layer {
  name: "fc2"
  type: "InnerProduct"
  bottom: "relu5"
  top: "fc2"
  param {
    lr_mult: 1
    decay_mult: 1
  }
  param {
    lr_mult: 2
    decay_mult: 0
  }
  inner_product_param {
    num_output: 2
    weight_filler {
      type: "gaussian"
      std: 0.01
    }
    bias_filler {
      type: "constant"
      value: 0
    }
  }
}
layer {
  name: "loss"
  type: "SoftmaxWithLoss"
  bottom: "fc2"
  bottom: "label"
  top: "loss"
}
layer {
  name: "accuracy"
  type: "Accuracy"
  bottom: "fc2"
  bottom: "label"
  top: "accuracy"
  include {
    phase: TEST
  }
}
I1212 20:54:30.245530 19904 layer_factory.hpp:77] Creating layer gender
I1212 20:54:30.245617 19904 net.cpp:84] Creating Layer gender
I1212 20:54:30.245677 19904 net.cpp:380] gender -> data
I1212 20:54:30.245746 19904 net.cpp:380] gender -> label
I1212 20:54:30.245813 19904 image_data_layer.cpp:38] Opening file ../../test.lst
I1212 20:54:30.320019 19904 image_data_layer.cpp:63] A total of 12000 images.
I1212 20:54:30.354151 19904 image_data_layer.cpp:90] output data size: 1,3,150,150
I1212 20:54:30.967449 19904 net.cpp:122] Setting up gender
I1212 20:54:30.967547 19904 net.cpp:129] Top shape: 1 3 150 150 (67500)
I1212 20:54:30.967610 19904 net.cpp:129] Top shape: 1 (1)
I1212 20:54:30.967674 19904 net.cpp:137] Memory required for data: 270004
I1212 20:54:30.967734 19904 layer_factory.hpp:77] Creating layer label_gender_1_split
I1212 20:54:30.967841 19904 net.cpp:84] Creating Layer label_gender_1_split
I1212 20:54:30.967900 19904 net.cpp:406] label_gender_1_split <- label
I1212 20:54:30.967965 19904 net.cpp:380] label_gender_1_split -> label_gender_1_split_0
I1212 20:54:30.968037 19904 net.cpp:380] label_gender_1_split -> label_gender_1_split_1
I1212 20:54:30.968194 19904 net.cpp:122] Setting up label_gender_1_split
I1212 20:54:30.968258 19904 net.cpp:129] Top shape: 1 (1)
I1212 20:54:30.968348 19904 net.cpp:129] Top shape: 1 (1)
I1212 20:54:30.968425 19904 net.cpp:137] Memory required for data: 270012
I1212 20:54:30.968482 19904 layer_factory.hpp:77] Creating layer conv1
I1212 20:54:30.968554 19904 net.cpp:84] Creating Layer conv1
I1212 20:54:30.968603 19904 net.cpp:406] conv1 <- data
I1212 20:54:30.968668 19904 net.cpp:380] conv1 -> conv1
I1212 20:54:30.969187 19904 net.cpp:122] Setting up conv1
I1212 20:54:30.969260 19904 net.cpp:129] Top shape: 1 3 75 75 (16875)
I1212 20:54:30.969328 19904 net.cpp:137] Memory required for data: 337512
I1212 20:54:30.969419 19904 layer_factory.hpp:77] Creating layer pool1
I1212 20:54:30.969478 19904 net.cpp:84] Creating Layer pool1
I1212 20:54:30.969529 19904 net.cpp:406] pool1 <- conv1
I1212 20:54:30.969586 19904 net.cpp:380] pool1 -> pool1
I1212 20:54:30.969699 19904 net.cpp:122] Setting up pool1
I1212 20:54:30.969764 19904 net.cpp:129] Top shape: 1 3 38 38 (4332)
I1212 20:54:30.969820 19904 net.cpp:137] Memory required for data: 354840
I1212 20:54:30.969866 19904 layer_factory.hpp:77] Creating layer relu1
I1212 20:54:30.969929 19904 net.cpp:84] Creating Layer relu1
I1212 20:54:30.969990 19904 net.cpp:406] relu1 <- pool1
I1212 20:54:30.970057 19904 net.cpp:380] relu1 -> relu1
I1212 20:54:30.970155 19904 net.cpp:122] Setting up relu1
I1212 20:54:30.970224 19904 net.cpp:129] Top shape: 1 3 38 38 (4332)
I1212 20:54:30.970280 19904 net.cpp:137] Memory required for data: 372168
I1212 20:54:30.970329 19904 layer_factory.hpp:77] Creating layer conv2a
I1212 20:54:30.970397 19904 net.cpp:84] Creating Layer conv2a
I1212 20:54:30.970463 19904 net.cpp:406] conv2a <- relu1
I1212 20:54:30.970525 19904 net.cpp:380] conv2a -> conv2a
I1212 20:54:30.971029 19904 net.cpp:122] Setting up conv2a
I1212 20:54:30.971094 19904 net.cpp:129] Top shape: 1 64 38 38 (92416)
I1212 20:54:30.971150 19904 net.cpp:137] Memory required for data: 741832
I1212 20:54:30.971217 19904 layer_factory.hpp:77] Creating layer conv2
I1212 20:54:30.971295 19904 net.cpp:84] Creating Layer conv2
I1212 20:54:30.971352 19904 net.cpp:406] conv2 <- conv2a
I1212 20:54:30.971423 19904 net.cpp:380] conv2 -> conv2
I1212 20:54:30.972640 19904 net.cpp:122] Setting up conv2
I1212 20:54:30.972712 19904 net.cpp:129] Top shape: 1 64 38 38 (92416)
I1212 20:54:30.972759 19904 net.cpp:137] Memory required for data: 1111496
I1212 20:54:30.972833 19904 layer_factory.hpp:77] Creating layer pool2
I1212 20:54:30.972893 19904 net.cpp:84] Creating Layer pool2
I1212 20:54:30.997967 19904 net.cpp:406] pool2 <- conv2
I1212 20:54:30.998037 19904 net.cpp:380] pool2 -> pool2
I1212 20:54:30.998163 19904 net.cpp:122] Setting up pool2
I1212 20:54:30.998230 19904 net.cpp:129] Top shape: 1 64 20 20 (25600)
I1212 20:54:30.998292 19904 net.cpp:137] Memory required for data: 1213896
I1212 20:54:30.998348 19904 layer_factory.hpp:77] Creating layer relu2
I1212 20:54:30.998423 19904 net.cpp:84] Creating Layer relu2
I1212 20:54:30.998477 19904 net.cpp:406] relu2 <- pool2
I1212 20:54:30.998536 19904 net.cpp:380] relu2 -> relu2
I1212 20:54:30.998625 19904 net.cpp:122] Setting up relu2
I1212 20:54:30.998693 19904 net.cpp:129] Top shape: 1 64 20 20 (25600)
I1212 20:54:30.998749 19904 net.cpp:137] Memory required for data: 1316296
I1212 20:54:30.998807 19904 layer_factory.hpp:77] Creating layer conv3a
I1212 20:54:30.998879 19904 net.cpp:84] Creating Layer conv3a
I1212 20:54:30.998960 19904 net.cpp:406] conv3a <- relu2
I1212 20:54:30.999035 19904 net.cpp:380] conv3a -> conv3a
I1212 20:54:30.999766 19904 net.cpp:122] Setting up conv3a
I1212 20:54:30.999845 19904 net.cpp:129] Top shape: 1 192 20 20 (76800)
I1212 20:54:30.999900 19904 net.cpp:137] Memory required for data: 1623496
I1212 20:54:30.999974 19904 layer_factory.hpp:77] Creating layer conv3
I1212 20:54:31.000037 19904 net.cpp:84] Creating Layer conv3
I1212 20:54:31.000105 19904 net.cpp:406] conv3 <- conv3a
I1212 20:54:31.000170 19904 net.cpp:380] conv3 -> conv3
I1212 20:54:31.055814 19904 net.cpp:122] Setting up conv3
I1212 20:54:31.055907 19904 net.cpp:129] Top shape: 1 192 24 24 (110592)
I1212 20:54:31.056006 19904 net.cpp:137] Memory required for data: 2065864
I1212 20:54:31.056113 19904 layer_factory.hpp:77] Creating layer pool3
I1212 20:54:31.056190 19904 net.cpp:84] Creating Layer pool3
I1212 20:54:31.056249 19904 net.cpp:406] pool3 <- conv3
I1212 20:54:31.056316 19904 net.cpp:380] pool3 -> pool3
I1212 20:54:31.056442 19904 net.cpp:122] Setting up pool3
I1212 20:54:31.056512 19904 net.cpp:129] Top shape: 1 192 13 13 (32448)
I1212 20:54:31.056565 19904 net.cpp:137] Memory required for data: 2195656
I1212 20:54:31.056622 19904 layer_factory.hpp:77] Creating layer relu3
I1212 20:54:31.056701 19904 net.cpp:84] Creating Layer relu3
I1212 20:54:31.056759 19904 net.cpp:406] relu3 <- pool3
I1212 20:54:31.056830 19904 net.cpp:380] relu3 -> relu3
I1212 20:54:31.056928 19904 net.cpp:122] Setting up relu3
I1212 20:54:31.056994 19904 net.cpp:129] Top shape: 1 192 13 13 (32448)
I1212 20:54:31.057045 19904 net.cpp:137] Memory required for data: 2325448
I1212 20:54:31.057096 19904 layer_factory.hpp:77] Creating layer conv4a
I1212 20:54:31.057168 19904 net.cpp:84] Creating Layer conv4a
I1212 20:54:31.057224 19904 net.cpp:406] conv4a <- relu3
I1212 20:54:31.057291 19904 net.cpp:380] conv4a -> conv4a
I1212 20:54:31.078243 19904 net.cpp:122] Setting up conv4a
I1212 20:54:31.078330 19904 net.cpp:129] Top shape: 1 384 13 13 (64896)
I1212 20:54:31.078389 19904 net.cpp:137] Memory required for data: 2585032
I1212 20:54:31.078462 19904 layer_factory.hpp:77] Creating layer conv4
I1212 20:54:31.078549 19904 net.cpp:84] Creating Layer conv4
I1212 20:54:31.078601 19904 net.cpp:406] conv4 <- conv4a
I1212 20:54:31.078672 19904 net.cpp:380] conv4 -> conv4
I1212 20:54:31.214668 19904 net.cpp:122] Setting up conv4
I1212 20:54:31.214762 19904 net.cpp:129] Top shape: 1 384 13 13 (64896)
I1212 20:54:31.214818 19904 net.cpp:137] Memory required for data: 2844616
I1212 20:54:31.214885 19904 layer_factory.hpp:77] Creating layer conv5a
I1212 20:54:31.233954 19904 net.cpp:84] Creating Layer conv5a
I1212 20:54:31.234030 19904 net.cpp:406] conv5a <- conv4
I1212 20:54:31.234096 19904 net.cpp:380] conv5a -> conv5a
I1212 20:54:31.236448 19904 net.cpp:122] Setting up conv5a
I1212 20:54:31.236527 19904 net.cpp:129] Top shape: 1 256 13 13 (43264)
I1212 20:54:31.236583 19904 net.cpp:137] Memory required for data: 3017672
I1212 20:54:31.236654 19904 layer_factory.hpp:77] Creating layer conv5
I1212 20:54:31.236748 19904 net.cpp:84] Creating Layer conv5
I1212 20:54:31.236802 19904 net.cpp:406] conv5 <- conv5a
I1212 20:54:31.236881 19904 net.cpp:380] conv5 -> conv5
I1212 20:54:31.285624 19904 net.cpp:122] Setting up conv5
I1212 20:54:31.285706 19904 net.cpp:129] Top shape: 1 256 13 13 (43264)
I1212 20:54:31.285769 19904 net.cpp:137] Memory required for data: 3190728
I1212 20:54:31.285856 19904 layer_factory.hpp:77] Creating layer conv6a
I1212 20:54:31.306936 19904 net.cpp:84] Creating Layer conv6a
I1212 20:54:31.307000 19904 net.cpp:406] conv6a <- conv5
I1212 20:54:31.307080 19904 net.cpp:380] conv6a -> conv6a
I1212 20:54:31.308867 19904 net.cpp:122] Setting up conv6a
I1212 20:54:31.308954 19904 net.cpp:129] Top shape: 1 256 13 13 (43264)
I1212 20:54:31.309010 19904 net.cpp:137] Memory required for data: 3363784
I1212 20:54:31.309073 19904 layer_factory.hpp:77] Creating layer conv6
I1212 20:54:31.309142 19904 net.cpp:84] Creating Layer conv6
I1212 20:54:31.309203 19904 net.cpp:406] conv6 <- conv6a
I1212 20:54:31.309276 19904 net.cpp:380] conv6 -> conv6
I1212 20:54:31.385550 19904 net.cpp:122] Setting up conv6
I1212 20:54:31.385635 19904 net.cpp:129] Top shape: 1 256 13 13 (43264)
I1212 20:54:31.385701 19904 net.cpp:137] Memory required for data: 3536840
I1212 20:54:31.385763 19904 layer_factory.hpp:77] Creating layer pool4
I1212 20:54:31.385841 19904 net.cpp:84] Creating Layer pool4
I1212 20:54:31.385897 19904 net.cpp:406] pool4 <- conv6
I1212 20:54:31.385978 19904 net.cpp:380] pool4 -> pool4
I1212 20:54:31.386134 19904 net.cpp:122] Setting up pool4
I1212 20:54:31.386204 19904 net.cpp:129] Top shape: 1 256 6 6 (9216)
I1212 20:54:31.386299 19904 net.cpp:137] Memory required for data: 3573704
I1212 20:54:31.386368 19904 layer_factory.hpp:77] Creating layer relu4
I1212 20:54:31.386435 19904 net.cpp:84] Creating Layer relu4
I1212 20:54:31.386507 19904 net.cpp:406] relu4 <- pool4
I1212 20:54:31.386567 19904 net.cpp:380] relu4 -> relu4
I1212 20:54:31.386687 19904 net.cpp:122] Setting up relu4
I1212 20:54:31.386751 19904 net.cpp:129] Top shape: 1 256 6 6 (9216)
I1212 20:54:31.386804 19904 net.cpp:137] Memory required for data: 3610568
I1212 20:54:31.386859 19904 layer_factory.hpp:77] Creating layer fc1
I1212 20:54:31.386950 19904 net.cpp:84] Creating Layer fc1
I1212 20:54:31.387012 19904 net.cpp:406] fc1 <- relu4
I1212 20:54:31.387073 19904 net.cpp:380] fc1 -> fc1
I1212 20:54:31.510082 19904 net.cpp:122] Setting up fc1
I1212 20:54:31.510191 19904 net.cpp:129] Top shape: 1 128 (128)
I1212 20:54:31.510251 19904 net.cpp:137] Memory required for data: 3611080
I1212 20:54:31.510318 19904 layer_factory.hpp:77] Creating layer relu5
I1212 20:54:31.510401 19904 net.cpp:84] Creating Layer relu5
I1212 20:54:31.510455 19904 net.cpp:406] relu5 <- fc1
I1212 20:54:31.510517 19904 net.cpp:380] relu5 -> relu5
I1212 20:54:31.510615 19904 net.cpp:122] Setting up relu5
I1212 20:54:31.510696 19904 net.cpp:129] Top shape: 1 128 (128)
I1212 20:54:31.510745 19904 net.cpp:137] Memory required for data: 3611592
I1212 20:54:31.510797 19904 layer_factory.hpp:77] Creating layer fc2
I1212 20:54:31.510854 19904 net.cpp:84] Creating Layer fc2
I1212 20:54:31.510918 19904 net.cpp:406] fc2 <- relu5
I1212 20:54:31.511003 19904 net.cpp:380] fc2 -> fc2
I1212 20:54:31.511255 19904 net.cpp:122] Setting up fc2
I1212 20:54:31.511327 19904 net.cpp:129] Top shape: 1 2 (2)
I1212 20:54:31.511378 19904 net.cpp:137] Memory required for data: 3611600
I1212 20:54:31.511442 19904 layer_factory.hpp:77] Creating layer fc2_fc2_0_split
I1212 20:54:31.511493 19904 net.cpp:84] Creating Layer fc2_fc2_0_split
I1212 20:54:31.511550 19904 net.cpp:406] fc2_fc2_0_split <- fc2
I1212 20:54:31.511607 19904 net.cpp:380] fc2_fc2_0_split -> fc2_fc2_0_split_0
I1212 20:54:31.511662 19904 net.cpp:380] fc2_fc2_0_split -> fc2_fc2_0_split_1
I1212 20:54:31.511801 19904 net.cpp:122] Setting up fc2_fc2_0_split
I1212 20:54:31.511873 19904 net.cpp:129] Top shape: 1 2 (2)
I1212 20:54:31.521600 19904 net.cpp:129] Top shape: 1 2 (2)
I1212 20:54:31.521667 19904 net.cpp:137] Memory required for data: 3611616
I1212 20:54:31.521726 19904 layer_factory.hpp:77] Creating layer loss
I1212 20:54:31.521798 19904 net.cpp:84] Creating Layer loss
I1212 20:54:31.521847 19904 net.cpp:406] loss <- fc2_fc2_0_split_0
I1212 20:54:31.521898 19904 net.cpp:406] loss <- label_gender_1_split_0
I1212 20:54:31.521992 19904 net.cpp:380] loss -> loss
…
