…
I1219 18:46:01.957223 27877 net.cpp:294] The NetState phase (0) differed from the phase (1) specified by a rule in layer accuracy
I1219 18:46:01.957315 27877 net.cpp:51] Initializing net from parameters: 
name: "SimpleFCN"
state {
  phase: TRAIN
  level: 0
  stage: ""
}
layer {
  name: "gender"
  type: "ImageData"
  top: "data"
  top: "label"
  include {
    phase: TRAIN
  }
  transform_param {
    scale: 0.00390625
  }
  image_data_param {
    source: "../../train.lst"
    batch_size: 100
    new_height: 150
    new_width: 150
    root_folder: "../../data/"
  }
}
layer {
  name: "hidden"
  type: "InnerProduct"
  bottom: "data"
  top: "hidden"
  inner_product_param {
    num_output: 1000
  }
}
layer {
  name: "sigm"
  type: "Sigmoid"
  bottom: "hidden"
  top: "sigm"
}
layer {
  name: "finalLayer"
  type: "InnerProduct"
  bottom: "sigm"
  top: "finalLayer"
  inner_product_param {
    num_output: 2
    weight_filler {
      type: "xavier"
    }
    bias_filler {
      type: "constant"
    }
  }
}
layer {
  name: "SoftLoss"
  type: "SoftmaxWithLoss"
  bottom: "finalLayer"
  bottom: "label"
  top: "loss"
}
I1219 18:46:01.957442 27877 layer_factory.hpp:77] Creating layer gender
I1219 18:46:01.957552 27877 net.cpp:84] Creating Layer gender
I1219 18:46:01.957603 27877 net.cpp:380] gender -> data
I1219 18:46:01.957679 27877 net.cpp:380] gender -> label
I1219 18:46:01.957765 27877 image_data_layer.cpp:38] Opening file ../../train.lst
I1219 18:46:01.974862 27877 image_data_layer.cpp:63] A total of 47000 images.
I1219 18:46:03.265161 27877 image_data_layer.cpp:90] output data size: 100,3,150,150
I1219 18:46:03.343760 27877 net.cpp:122] Setting up gender
I1219 18:46:03.344103 27877 net.cpp:129] Top shape: 100 3 150 150 (6750000)
I1219 18:46:03.344147 27877 net.cpp:129] Top shape: 100 (100)
I1219 18:46:03.344172 27877 net.cpp:137] Memory required for data: 27000400
I1219 18:46:03.344198 27877 layer_factory.hpp:77] Creating layer hidden
I1219 18:46:03.344246 27877 net.cpp:84] Creating Layer hidden
I1219 18:46:03.344269 27877 net.cpp:406] hidden <- data
I1219 18:46:03.344301 27877 net.cpp:380] hidden -> hidden
I1219 18:46:03.527401 27877 net.cpp:122] Setting up hidden
I1219 18:46:03.527483 27877 net.cpp:129] Top shape: 100 1000 (100000)
I1219 18:46:03.527506 27877 net.cpp:137] Memory required for data: 27400400
I1219 18:46:03.527551 27877 layer_factory.hpp:77] Creating layer sigm
I1219 18:46:03.527611 27877 net.cpp:84] Creating Layer sigm
I1219 18:46:03.527633 27877 net.cpp:406] sigm <- hidden
I1219 18:46:03.527657 27877 net.cpp:380] sigm -> sigm
I1219 18:46:03.527729 27877 net.cpp:122] Setting up sigm
I1219 18:46:03.527758 27877 net.cpp:129] Top shape: 100 1000 (100000)
I1219 18:46:03.527803 27877 net.cpp:137] Memory required for data: 27800400
I1219 18:46:03.527825 27877 layer_factory.hpp:77] Creating layer finalLayer
I1219 18:46:03.527849 27877 net.cpp:84] Creating Layer finalLayer
I1219 18:46:03.527873 27877 net.cpp:406] finalLayer <- sigm
I1219 18:46:03.527894 27877 net.cpp:380] finalLayer -> finalLayer
I1219 18:46:03.528674 27877 net.cpp:122] Setting up finalLayer
I1219 18:46:03.528710 27877 net.cpp:129] Top shape: 100 2 (200)
I1219 18:46:03.528731 27877 net.cpp:137] Memory required for data: 27801200
I1219 18:46:03.528779 27877 layer_factory.hpp:77] Creating layer SoftLoss
I1219 18:46:03.529582 27877 net.cpp:84] Creating Layer SoftLoss
I1219 18:46:03.529620 27877 net.cpp:406] SoftLoss <- finalLayer
I1219 18:46:03.529645 27877 net.cpp:406] SoftLoss <- label
I1219 18:46:03.529669 27877 net.cpp:380] SoftLoss -> loss
…
I1219 18:46:03.533195 27877 solver.cpp:172] Creating test net (#0) specified by net file: gender_fcn_relearn.prototxt
I1219 18:46:03.533246 27877 net.cpp:294] The NetState phase (1) differed from the phase (0) specified by a rule in layer gender
I1219 18:46:03.533354 27877 net.cpp:51] Initializing net from parameters: 
name: "SimpleFCN"
state {
  phase: TEST
}
layer {
  name: "gender"
  type: "ImageData"
  top: "data"
  top: "label"
  include {
    phase: TEST
  }
  transform_param {
    scale: 0.00390625
  }
  image_data_param {
    source: "../../test.lst"
    batch_size: 100
    new_height: 150
    new_width: 150
    root_folder: "../../data/"
  }
}
layer {
  name: "hidden"
  type: "InnerProduct"
  bottom: "data"
  top: "hidden"
  inner_product_param {
    num_output: 1000
  }
}
layer {
  name: "sigm"
  type: "Sigmoid"
  bottom: "hidden"
  top: "sigm"
}
layer {
  name: "finalLayer"
  type: "InnerProduct"
  bottom: "sigm"
  top: "finalLayer"
  inner_product_param {
    num_output: 2
    weight_filler {
      type: "xavier"
    }
    bias_filler {
      type: "constant"
    }
  }
}
layer {
  name: "SoftLoss"
  type: "SoftmaxWithLoss"
  bottom: "finalLayer"
  bottom: "label"
  top: "loss"
}
layer {
  name: "softmaxOut"
  type: "Softmax"
  bottom: "finalLayer"
  top: "output"
  include {
    phase: TEST
  }
}
layer {
  name: "accuracy"
  type: "Accuracy"
  bottom: "output"
  bottom: "label"
  top: "accuracy"
  include {
    phase: TEST
  }
}
I1219 18:46:03.533453 27877 layer_factory.hpp:77] Creating layer gender
I1219 18:46:03.533491 27877 net.cpp:84] Creating Layer gender
I1219 18:46:03.533519 27877 net.cpp:380] gender -> data
I1219 18:46:03.533546 27877 net.cpp:380] gender -> label
I1219 18:46:03.533574 27877 image_data_layer.cpp:38] Opening file ../../test.lst
I1219 18:46:03.538215 27877 image_data_layer.cpp:63] A total of 12000 images.
I1219 18:46:03.540283 27877 image_data_layer.cpp:90] output data size: 100,3,150,150
I1219 18:46:03.619750 27877 net.cpp:122] Setting up gender
I1219 18:46:03.619900 27877 net.cpp:129] Top shape: 100 3 150 150 (6750000)
I1219 18:46:03.619935 27877 net.cpp:129] Top shape: 100 (100)
I1219 18:46:03.619967 27877 net.cpp:137] Memory required for data: 27000400
I1219 18:46:03.619990 27877 layer_factory.hpp:77] Creating layer label_gender_1_split
I1219 18:46:03.620045 27877 net.cpp:84] Creating Layer label_gender_1_split
I1219 18:46:03.620071 27877 net.cpp:406] label_gender_1_split <- label
I1219 18:46:03.620096 27877 net.cpp:380] label_gender_1_split -> label_gender_1_split_0
I1219 18:46:03.620126 27877 net.cpp:380] label_gender_1_split -> label_gender_1_split_1
I1219 18:46:03.620204 27877 net.cpp:122] Setting up label_gender_1_split
I1219 18:46:03.620234 27877 net.cpp:129] Top shape: 100 (100)
I1219 18:46:03.620256 27877 net.cpp:129] Top shape: 100 (100)
I1219 18:46:03.620275 27877 net.cpp:137] Memory required for data: 27001200
I1219 18:46:03.620317 27877 layer_factory.hpp:77] Creating layer hidden
I1219 18:46:03.620352 27877 net.cpp:84] Creating Layer hidden
I1219 18:46:03.620378 27877 net.cpp:406] hidden <- data
I1219 18:46:03.620399 27877 net.cpp:380] hidden -> hidden
I1219 18:46:03.797319 27877 net.cpp:122] Setting up hidden
I1219 18:46:03.797432 27877 net.cpp:129] Top shape: 100 1000 (100000)
I1219 18:46:03.797457 27877 net.cpp:137] Memory required for data: 27401200
I1219 18:46:03.797492 27877 layer_factory.hpp:77] Creating layer sigm
I1219 18:46:03.797521 27877 net.cpp:84] Creating Layer sigm
I1219 18:46:03.797545 27877 net.cpp:406] sigm <- hidden
I1219 18:46:03.797569 27877 net.cpp:380] sigm -> sigm
I1219 18:46:03.797617 27877 net.cpp:122] Setting up sigm
I1219 18:46:03.797648 27877 net.cpp:129] Top shape: 100 1000 (100000)
I1219 18:46:03.797670 27877 net.cpp:137] Memory required for data: 27801200
I1219 18:46:03.797691 27877 layer_factory.hpp:77] Creating layer finalLayer
I1219 18:46:03.797716 27877 net.cpp:84] Creating Layer finalLayer
I1219 18:46:03.797739 27877 net.cpp:406] finalLayer <- sigm
I1219 18:46:03.797761 27877 net.cpp:380] finalLayer -> finalLayer
I1219 18:46:03.797926 27877 net.cpp:122] Setting up finalLayer
I1219 18:46:03.797966 27877 net.cpp:129] Top shape: 100 2 (200)
I1219 18:46:03.797991 27877 net.cpp:137] Memory required for data: 27802000
I1219 18:46:03.798024 27877 layer_factory.hpp:77] Creating layer finalLayer_finalLayer_0_split
I1219 18:46:03.798058 27877 net.cpp:84] Creating Layer finalLayer_finalLayer_0_split
I1219 18:46:03.798100 27877 net.cpp:406] finalLayer_finalLayer_0_split <- finalLayer
I1219 18:46:03.798127 27877 net.cpp:380] finalLayer_finalLayer_0_split -> finalLayer_finalLayer_0_split_0
I1219 18:46:03.798167 27877 net.cpp:380] finalLayer_finalLayer_0_split -> finalLayer_finalLayer_0_split_1
I1219 18:46:03.798233 27877 net.cpp:122] Setting up finalLayer_finalLayer_0_split
I1219 18:46:03.798264 27877 net.cpp:129] Top shape: 100 2 (200)
I1219 18:46:03.798298 27877 net.cpp:129] Top shape: 100 2 (200)
I1219 18:46:03.798321 27877 net.cpp:137] Memory required for data: 27803600
I1219 18:46:03.798346 27877 layer_factory.hpp:77] Creating layer SoftLoss
I1219 18:46:03.798372 27877 net.cpp:84] Creating Layer SoftLoss
I1219 18:46:03.798393 27877 net.cpp:406] SoftLoss <- finalLayer_finalLayer_0_split_0
I1219 18:46:03.798418 27877 net.cpp:406] SoftLoss <- label_gender_1_split_0
I1219 18:46:03.798444 27877 net.cpp:380] SoftLoss -> loss
I1219 18:46:03.798473 27877 layer_factory.hpp:77] Creating layer SoftLoss
I1219 18:46:03.798578 27877 net.cpp:122] Setting up SoftLoss
I1219 18:46:03.798609 27877 net.cpp:129] Top shape: (1)
I1219 18:46:03.798630 27877 net.cpp:132]     with loss weight 1
I1219 18:46:03.798660 27877 net.cpp:137] Memory required for data: 27803604
I1219 18:46:03.798686 27877 layer_factory.hpp:77] Creating layer softmaxOut
I1219 18:46:03.798713 27877 net.cpp:84] Creating Layer softmaxOut
I1219 18:46:03.798737 27877 net.cpp:406] softmaxOut <- finalLayer_finalLayer_0_split_1
I1219 18:46:03.798759 27877 net.cpp:380] softmaxOut -> output
I1219 18:46:03.798833 27877 net.cpp:122] Setting up softmaxOut
I1219 18:46:03.798866 27877 net.cpp:129] Top shape: 100 2 (200)
I1219 18:46:03.798889 27877 net.cpp:137] Memory required for data: 27804404
I1219 18:46:03.798910 27877 layer_factory.hpp:77] Creating layer accuracy
I1219 18:46:03.798976 27877 net.cpp:84] Creating Layer accuracy
I1219 18:46:03.799003 27877 net.cpp:406] accuracy <- output
I1219 18:46:03.799026 27877 net.cpp:406] accuracy <- label_gender_1_split_1
I1219 18:46:03.799062 27877 net.cpp:380] accuracy -> accuracy
…
